model/discriminator_parameters_latest.pth (torch, 3408 bytes, 3 tensors)

linear1.weight f4 [32, 6]
0	0x3e7b5627	0.24544583
1	0x3e3f67a4	0.1869188
2	0x3e5ee59d	0.21767278
3	0xbeb6a786	-0.35674685
4	0xbe3c5388	-0.1839124
5	0xbcd16aa9	-0.025563555
6	0x3ec38b46	0.38192195
7	0x3dc37367	0.095434956
8	0x3ec33294	0.38124526
9	0x3e4e2729	0.20132126
10	0xbe225590	-0.15852952
11	0xbe1b50bd	-0.15167518
12	0x3e874d03	0.26425943
13	0x3e2318be	0.15927407
14	0xbd5268fa	-0.051369645
15	0x3e3bee89	0.18352713
16	0xbcf72d4b	-0.030172965
17	0xbe0ff97c	-0.14060014
18	0x3c8bc6a3	0.01706249
19	0x3e3bbf71	0.18334748
20	0xbe2aefa2	-0.16692975
21	0xbe7dcb39	-0.24784555
22	0x3e97ec47	0.29672453
23	0xbe671a35	-0.22568591
24	0xbed6c39b	-0.4194611
25	0x3e8319f8	0.2560575
26	0xbef7e87a	-0.48419553
27	0x3d34dd76	0.044156514
28	0xbe82b9fe	-0.25532526
29	0xbe52c569	-0.20583118
30	0x3ddfbc2c	0.10924563
31	0xbe3833de	-0.17988536
32	0xbe2480c6	-0.16064748
33	0x3b89d0ce	0.0042057997
34	0xbeb2ee83	-0.34947595
35	0x3e96f5db	0.29484448
36	0x3eb43b9d	0.3520173
37	0x3eb3f9b1	0.35151437
38	0x3d563ec2	0.052305944
39	0xbf0951a6	-0.5364021
40	0xbe8febe0	-0.28109646
41	0x3e68bf1c	0.22729152
42	0xbeb60397	-0.35549614
43	0x3e76643c	0.24061674
44	0x3c7decc7	0.015498347
45	0xbdd4f93f	-0.103991024
46	0xbe3c97e5	-0.18417318
47	0x3e028e5c	0.12749618
48	0xbe09ba52	-0.13449982
49	0x3d33c5be	0.043889754
50	0x3e0e03dd	0.13868661
51	0x3ed6a921	0.4192591
52	0x3e917002	0.28405768
53	0x3d199677	0.03749701
54	0xbe32f9ad	-0.17478056
55	0xbe5f2a21	-0.21793415
56	0x3f03d80e	0.5150155
57	0x3ebe360c	0.3715061
58	0x3de867c6	0.11347918
59	0x3ea9734c	0.33095777
60	0x3eb38b8c	0.35067403
61	0x3de08126	0.10962133
62	0x3efc50d6	0.49280423
63	0xbd5c8643	-0.05383898
64	0x3eb05094	0.34436476
65	0x3d21abc4	0.03947045
66	0x3e8e6532	0.2781158
67	0xbe8679e1	-0.2626486
68	0x3d8b9fbc	0.06817576
69	0x3d85913e	0.065218434
70	0xbc8b5aeb	-0.017011127
71	0xbc337c3b	-0.010954912
72	0x3e072bf5	0.13200362
73	0x3ecdd87e	0.40204233
74	0x3cb81b4e	0.022473957
75	0x3d8dd346	0.06925063
76	0x3d83e41f	0.06439995
77	0x3e697669	0.22799076
78	0x3ea169fd	0.31526175
79	0xbd105f1f	-0.035246965
80	0x3e997a70	0.29976225
81	0xbd896ee8	-0.06710607
82	0xbec3074e	-0.3809151
83	0x3cca8122	0.024719778
84	0x3c4ac18d	0.012375248
85	0xbd5f7f9e	-0.054565065
86	0x3e56fde4	0.20995289
87	0x3e1a0e99	0.15044631
88	0xbe9a2d8d	-0.30112877
89	0xbe90c43c	-0.28274715
90	0x3ee8d599	0.45475462
91	0xbe103d0f	-0.14085792
92	0x3dd94601	0.10609055
93	0x3e5225ba	0.20522204
94	0x3ece078b	0.4024013
95	0x3ecd5f9b	0.40112004
96	0x3d9c0e1c	0.07619879
97	0x3d680399	0.056644056
98	0xbd4cd458	-0.050007194
99	0xbc36506c	-0.0111275725
100	0x3e413dc7	0.18871222
101	0xbc2a28da	-0.010385716
102	0x3e8beefc	0.27330768
103	0x3e7ffc11	0.249985
104	0x3e15babe	0.14622018
105	0xbe4bfe90	-0.19921327
106	0xbe20349a	-0.15645066
107	0xbe974f2e	-0.29552597
108	0x3ecd6abc	0.40120494
109	0x3e6c3400	0.23066711
110	0xbdce1e6a	-0.10064395
111	0x3e97d23b	0.2965258
112	0x3e961ec1	0.29320338
113	0xbec90180	-0.39258957
114	0xbeac2b5b	-0.33626828
115	0xbdf9a379	-0.12189383
116	0x3db951a7	0.09048777
117	0xbe094bd5	-0.13407834
118	0xbe9400cb	-0.28906855
119	0x3cf33658	0.029688999
120	0xbe43ac4e	-0.19108698
121	0x3e7ebd9f	0.24877022
122	0x3e97c0d4	0.29639304
123	0xbe0a7312	-0.13520458
124	0x3e513039	0.20428552
125	0xbeef11f6	-0.4669339
126	0xbebaa3e2	-0.36453158
127	0x3e95c480	0.2925148
128	0xbe0df436	-0.1386269
129	0xbe618bd7	-0.22026001
130	0xbe00e92b	-0.12588947
131	0xbe1f4a30	-0.15555644
132	0x3b61dacd	0.003446269
133	0x3c9960a8	0.018722847
134	0x3d051802	0.0324936
135	0xbefef0b5	-0.4979302
136	0x3e068f73	0.13140659
137	0xbcc48ae0	-0.023992002
138	0xbd8ec357	-0.06970852
139	0x3d942eb0	0.072354674
140	0xbc5c602b	-0.013450663
141	0xbda0af4d	-0.07845936
142	0xbe13477d	-0.1438274
143	0xbe0ec000	-0.1394043
144	0xbc294875	-0.0103322165
145	0xbb4493cf	-0.0029995327
146	0xbe4d2cec	-0.20036668
147	0xbbbdcea1	-0.0057924544
148	0xbb57224b	-0.0032826837
149	0x3f55b233	0.83475035
150	0xbec5f03b	-0.38659844
151	0x3e82aa16	0.2552039
152	0xbdcef135	-0.101046
153	0x3e30b6f3	0.1725729
154	0xbe853099	-0.2601364
155	0x3e3c2d6f	0.18376707
156	0xbe0ea9b4	-0.13931924
157	0x3ded488b	0.11586102
158	0x3e74e12c	0.23914021
159	0x3dc1028c	0.09424314
160	0xbe127e40	-0.14305973
161	0x3d899154	0.06717172
162	0xbc53ba85	-0.012922888
163	0xbe665299	-0.22492446
164	0xbf1c2527	-0.6099419
165	0xbee3ae32	-0.44468838
166	0x3e63feca	0.22265163
167	0x3d5796b9	0.052633975
168	0x3b38c784	0.0028195092
169	0xbe9a21a9	-0.30103806
170	0x3cf94b02	0.030431274
171	0x3dc2df0e	0.095152006
172	0x3e55c62b	0.20876376
173	0x3e4c5a2e	0.19956276
174	0xbce57e1f	-0.02801424
175	0xbe9d0ab7	-0.30672237
176	0x3e4af3a7	0.19819508
177	0xbcb05bfe	-0.02152824
178	0xbdf71370	-0.12064254
179	0xbf0214ef	-0.5081319
180	0xbdb33f92	-0.087523594
181	0xbe95d67c	-0.292652
182	0x3e84110c	0.25794256
183	0x3e6b0b43	0.22953515
184	0x3e53acfc	0.20671457
185	0x3e2f2656	0.17104468
186	0x3e9222f7	0.285423
187	0xbe65a18d	-0.22424908
188	0xbec540f7	-0.38526127
189	0x3d2ecfe3	0.042678725
190	0xbdec49d5	-0.1153752
191	0x3cf1c2cd	0.029511834

linear1.bias f4 [32]
0	0xbe6e59c4	-0.2327643
1	0x3ec36aea	0.38167506
2	0x3ef2dac6	0.47432536
3	0x3eb5f61f	0.35539338
4	0xbee9f2bd	-0.45693007
5	0x3e35c1a9	0.17749657
6	0xbe00b7ac	-0.12570065
7	0x3dcc0a0d	0.099628545
8	0x3cd4e97d	0.025990242
9	0x3e58c128	0.21167433
10	0x3e24460f	0.1604235
11	0x3ebaf891	0.36517766
12	0xbdc96294	-0.098332554
13	0x3e25fa2a	0.16208711
14	0xbe778a6c	-0.24173898
15	0x3d533eff	0.05157375
16	0xbd881729	-0.066450424
17	0x3ec70c51	0.38876584
18	0x3c9d870d	0.019229436
19	0xbe3f3285	-0.18671615
20	0x3da4398a	0.08018787
21	0x3cc1a1ad	0.023636663
22	0xbedb70c6	-0.42859477
23	0xbe4e14a6	-0.20125064
24	0xbd08a78d	-0.033362914
25	0xbd51297a	-0.051064946
26	0xbe2c26e0	-0.16811705
27	0xbe45297f	-0.19254111
28	0xbd97ad0d	-0.07406054
29	0x3e49bc7b	0.19700806
30	0xbd370dbb	-0.04469083
31	0xbed4f10c	-0.41590154

linear2.weight f4 [1, 32]
0	0x3d8aeb20	0.06783128
1	0x3d5b8f6c	0.053603575
2	0xbdc49d81	-0.09600354
3	0xbd9d53f6	-0.0768203
4	0xbe1cdafa	-0.15317908
5	0x3d91524d	0.07095776
6	0xbd2a748b	-0.04161505
7	0x3bd371db	0.0064527816
8	0x3d69e81b	0.05710612
9	0xbd124216	-0.035707556
10	0xbe083067	-0.13299714
11	0xbd9672a3	-0.07346084
12	0x3d29801e	0.041381948
13	0xbd98a9c2	-0.07454254
14	0xbc45e319	-0.01207807
15	0x3d98bab2	0.07457484
16	0x3d9e18d5	0.0771958
17	0x3d7fd929	0.06246296
18	0x3cb51341	0.022103908
19	0x3db45e6c	0.08807072
20	0xbd01a4ee	-0.03165143
21	0x3df3017f	0.1186552
22	0x3de0ff2f	0.109861724
23	0xbdd551e3	-0.10416009
24	0xbe08437b	-0.13306992
25	0xbc40e01c	-0.011772182
26	0x3db4154f	0.08793127
27	0xbc0a5260	-0.008442491
28	0x3da9be05	0.082881965
29	0xbcefb0b9	-0.029259073
30	0xbdafdff2	-0.08587636
31	0x3d52be2e	0.0514509
