model/discriminator_parameters.pth (torch, 2840 bytes, 3 tensors)

linear1.weight f4 [16, 6]
0.059288092 -0.15716268 -0.9519171 0.3271252 -0.35444513 0.40775526 -0.06758438 0.4282392
0.01664116 0.11466455 0.59094286 0.15276459 -0.1946319 -0.17271927 0.25421172 -0.014025902
0.5779393 0.2381941 -0.00010765616 -0.0024050376 1.1272391 -0.059825867 0.0054965564 0.6954998
-0.04933209 0.049928684 -0.051396687 0.030246224 0.18187115 -0.79077625 0.002706324 0.30122
0.90394384 0.12427709 0.26326132 0.008538818 -0.3335593 0.24798654 0.5355455 0.19317931
0.124354176 0.10542861 0.41245118 -0.31584615 0.24378727 -0.31956172 0.0887722 -0.3215488
-0.604137 0.060728975 -0.606137 0.059379157 -0.40086326 -0.018723512 0.005972675 -0.03833022
0.3957492 -0.025199356 0.33925423 -0.3713903 0.3410259 -0.060978048 -0.35326096 0.045427877
0.6345566 -0.03390479 -0.08659878 -0.08000536 0.14910491 -0.0004553205 0.24585913 0.36027476
-0.018610667 -0.34860823 -0.77904296 -0.07046411 -0.3853738 -0.13556074 -0.025653584 -0.2870386
0.93595487 -0.09708486 -0.4870972 0.52137357 -0.23730534 -0.033912335 0.39050284 0.0711652
0.20326024 0.061075486 0.26594928 -0.064388275 0.7701554 0.00200063 0.11024212 0.39956057
00000000: 12d8 723d 41ef 20be d7b0 73bf f47c a73e
00000010: d579 b5be 4cc5 d03e ae69 8abd 2b42 db3e
00000020: 0b53 883c 3fd5 ea3d 0848 173f 526e 1c3e
00000030: 964d 47be 52dd 30be 0a28 823e e6cc 65bc
00000040: d4f3 133f 27e9 733e 76c5 e1b8 d69d 1dbb
00000050: 5f49 903f f80b 75bd 751c b43b 460c 323f
00000060: 7210 4abd 0582 4c3d 5585 52bd eec6 f73c
00000070: 6e3c 3a3e 5070 4abf 955c 313b 8239 9a3e
00000080: dd68 673f fd84 fe3d 30ca 863e 66e6 0b3c
00000090: 49c8 aabe 2ff0 7d3e 8319 093f ccd0 453e
000000a0: 67ad fe3d f5ea d73d cd2c d33e 96b6 a1be
000000b0: 5fa3 793e 989d a3be 33ce b53d 0ba2 a4be
000000c0: b9a8 1abf f2be 783d cb2b 1bbf 8f37 733d
000000d0: f33d cdbe 0d62 99bc 6eb6 c33b 2600 1dbd
000000e0: a49f ca3e e16e cebc bbb2 ad3e df26 bebe
000000f0: f29a ae3e 1ec4 79bd 9fde b4be 9512 3a3d
00000100: 4d72 223f c0df 0abd b35a b1bd dad9 a3bd
00000110: f5ae 183e 15b8 eeb9 7fc2 7b3e ef75 b83e
00000120: 6675 98bc c77c b2be 5c6f 47bf 7d4f 90bd
00000130: b74f c5be 6fd0 0abe 7727 d2bc b9f6 92be
00000140: bd9a 6f3f 6dd4 c6bd ce64 f9be bd78 053f
00000150: 2c00 73be a9e7 0abd fdef c73e 0fbf 913d
00000160: 7423 503e 4a2a 7a3d 812a 883e 00de 83bd
00000170: e728 453f 001d 033b 9fc6 e13d 3493 cc3e

linear1.bias f4 [16]
-0.078342795 0.3109155 1.2399381 3.018407 -1.8131828 -0.03576395 -0.0550994 0.35747683
0.24969074 -0.021559607 0.18411179 -0.28824598 -0.47748676 -0.05857261 0.5358933 -0.65027845
00000000: 3072 a0bd 5130 9f3e 4bb6 9e3f 952d 4140
00000010: 6016 e8bf 387d 12bd e9af 61bd 3407 b73e
00000020: eeae 7f3e c69d b0bc cd87 3c3e fa94 93be
00000030: 2579 f4be d5e9 6fbd 4e30 093f a678 26bf

linear2.weight f4 [1, 16]
-0.0826696 -0.13389802 -0.15521733 -1.1655898 -0.39367485 0.14070481 0.12377034 -0.2456323
-0.090497494 0.27585515 -0.07040465 0.19531856 -0.09081394 0.35744956 0.17491594 0.25124726
00000000: ae4e a9bd 901c 09be 4bf1 1ebe 0c32 95bf
00000010: c08f c9be ec14 103e 4e7b fd3d 0987 7bbe
00000020: c056 b9bd e33c 8d3e 5030 90bd 9701 483e
00000030: a9fc b9bd a103 b73e 2a1d 333e 7ba3 803e
