model/discriminator_parameters.pth (torch, 2840 bytes, 3 tensors)

linear1.weight f4 [16, 6]
0.2639647 0.02961475 -0.23414649 0.056248207 0.2731215 0.057593122 0.36482066 0.26672855
0.37245983 0.009259549 0.10393933 -0.01976882 -0.12964517 0.04616138 0.13900855 0.43101132
-0.030295022 -0.03885065 0.2679075 0.04020763 -0.15210146 0.18778206 0.30149373 0.030312028
0.23746961 0.22676556 -0.20722881 -0.23091038 -0.024526997 0.04539649 0.19250579 -0.1959281
0.022184042 0.16531646 -0.028299028 0.052208126 0.33102354 0.24258623 0.36010474 0.20337825
0.09432339 0.0006281261 -0.44211814 -0.24359049 -0.24826649 -1.0961995 -0.12859654 -0.15200606
0.07834921 -0.34163418 -0.07974038 -0.08559961 0.2668578 0.08425484 0.37429598 0.046303906
-0.26538414 -0.21367233 0.38620326 0.102048874 0.30262795 -0.10622333 -0.3500039 -0.5150705
0.07379474 0.09246482 -0.20524944 -0.20143555 0.17966007 0.33499297 0.023186931 -0.057285875
0.3092872 -0.3286351 0.027789228 0.1784319 -0.05362731 0.08098906 -0.078062125 0.3397578
0.15343107 0.7033264 -0.25621292 -0.08073114 0.08225349 -0.09920818 -0.027687043 -0.06258072
-0.15670122 -0.038045205 -0.13957307 0.17032282 0.27302316 0.6305111 0.26478562 0.07362965
00000000: 6226 873e a29a f23c 19c4 6fbe 8564 663d
00000010: 95d6 8b3e c4e6 6b3d c6c9 ba3e a590 883e
00000020: 0eb3 be3e 5db5 173c 25de d43d 38f2 a1bc
00000030: b4c1 04be b713 3d3d 4258 0e3e 84ad dc3e
00000040: 442d f8bc dc21 1fbd 2c2b 893e c1b0 243d
00000050: 7cc0 1bbe f149 403e 635d 9a3e ee50 f83c
00000060: 3c2b 733e 3b35 683e ca33 54be c573 6cbe
00000070: d7ec c8bc abf1 393d 3d20 453e 60a1 48be
00000080: 4fbb b53c b848 293e 5dd3 e7bc 30d8 553d
00000090: eb7b a93e 8668 783e a65f b83e 6342 503e
000000a0: 9f2c c13d d4a8 243a 4f5d e2be c96f 79be
000000b0: 9239 7ebe 4450 8cbf d0ae 03be 7aa7 1bbe
000000c0: 8d75 a03d adea aebe ed4e a3bd d94e afbd
000000d0: 96a1 883e cd8d ac3d b9a3 bf3e 2aa9 3d3d
000000e0: 6ee0 87be ebcc 5abe 6fbc c53e 00ff d03d
000000f0: 0df2 9a3e 9e8b d9bd b633 b3be a9db 03bf
00000100: b221 973d 325e bd3d e92c 52be 1f45 4ebe
00000110: cff8 373e 3384 ab3e 85f2 bd3c 98a4 6abd
00000120: e45a 9e3e dc42 a8be 3ca6 e33c dab6 363e
00000130: 4fa8 5bbd 98dd a53d 09df 9fbd bcf4 ad3e
00000140: 091d 1d3e 330d 343f 572e 83be 5e56 a5bd
00000150: 8574 a83d a92d cbbd f0cf e2bc 522a 80bd
00000160: 4976 20be 4ad5 1bbd 3eec 0ebe 1b69 2e3e
00000170: b1c9 8b3e 2d69 213f fb91 873e 24cb 963d

linear1.bias f4 [16]
-0.36302838 0.33840042 0.1275168 0.1404929 -0.10739038 -0.0070218444 0.18833956 -1.430238
0.1686898 -0.094646305 -0.44515306 0.08994228 0.09072777 0.50408745 -0.28473175 0.592873
00000000: dbde b9be d242 ad3e c493 023e 5fdd 0f3e
00000010: 7def dbbd 8017 e6bb 16dc 403e 0a12 b7bf
00000020: 05bd 2c3e ecd5 c1bd 1aeb e3be a833 b83d
00000030: 7bcf b93d e00b 013f 5cc8 91be 86c6 173f

linear2.weight f4 [1, 16]
0.06936769 -0.09259942 0.22295636 -0.028785797 0.08042816 -0.20681041 0.10196928 -0.0025932603
0.06527276 -0.027150398 -0.09065764 -0.08826766 0.12407775 -0.06725416 0.051604994 -0.03135535
00000000: a610 8e3d c4a4 bdbd ac4e 643e 31d0 ebbc
00000010: 85b7 a43d 1cc6 53be 45d5 d03d b0f3 29bb
00000020: baad 853d 836a debc b6aa b9bd adc5 b4bd
00000030: 7a1c fe3d 8dbc 89bd c25f 533d 786e 00bd
