model/discriminator_parameters_full.pth (torch, 2880 bytes, 3 tensors)

linear1.weight f4 [16, 6]
-0.05063358 0.046701744 -0.20714284 0.14459082 -0.2589408 -0.18533817 0.00025736436 0.23063236
1.2045835 -0.024692662 0.2328254 0.8572966 0.20033786 -0.014114774 -0.47978374 0.07191115
-0.13369909 -1.0656495 0.017656809 -0.32666916 0.68986 0.022001194 -0.3645331 -0.52242136
-0.10228471 0.025471877 0.3591202 0.4076117 0.2837239 0.17726235 0.025066346 0.09482264
0.09642376 0.0638932 0.27431792 -0.12309748 -0.30274147 -0.38607678 0.16923974 0.2995203
-0.26216248 0.08171096 -0.018031677 -0.11036806 0.69734496 -0.04816375 -0.25397223 1.0809287
-0.10665002 0.30331808 0.36195752 -0.024332164 -0.3297224 0.27230883 0.044409394 0.18172877
0.32999143 -0.20460787 -0.573149 0.24530967 -0.20180714 0.4943601 0.2720873 -0.030871592
-0.57314473 0.12063467 0.029684998 0.46489114 -0.16122608 -0.11235811 0.03255763 0.63476014
-0.008792149 -0.0009140799 -0.6511894 -0.039177332 0.009718906 0.4307181 0.0013061432 -0.008884879
0.1630104 0.27505773 0.33197856 -0.031643312 -0.114285946 0.05001925 0.23372471 0.15890066
-0.027732916 0.22600283 -0.0684306 0.049741756 -0.20061916 0.34482822 0.040528852 -0.22299196
00000000: 2865 4fbd 544a 3f3d 411d 54be 9e0f 143e
00000010: e393 84be 4ac9 3dbe dcee 8639 e42a 6c3e
00000020: cb2f 9a3f 4448 cabc c869 6e3e ca77 5b3f
00000030: 5e25 4d3e a741 67bc 37a6 f5be 2746 933d
00000040: 6ae8 08be 3467 88bf 03a5 903c 2e41 a7be
00000050: aa9a 303f d93b b43c 15a4 babe 68bd 05bf
00000060: a57a d1bd 66aa d03c 9ade b73e 7bb2 d03e
00000070: 4244 913e 4384 353e f057 cd3c 5f32 c23d
00000080: d279 c53d 70da 823d 6673 8c3e 881a fcbd
00000090: ee00 9bbe dbab c5be 2f4d 2d3e ba5a 993e
000000a0: 293a 86be 1358 a73d 2bb7 93bc a608 e2bd
000000b0: 3385 323f 5a47 45bd a608 82be df5b 8a3f
000000c0: 536b dabd 824c 9b3e 7f52 b93e 3f54 c7bc
000000d0: 60d1 a8be 106c 8b3e a0e6 353d 1b17 3a3e
000000e0: a3f4 a83e ba84 51be e5b9 12bf 7532 7b3e
000000f0: 88a6 4ebe c41c fd3e 074f 8b3e 6ce6 fcbc
00000100: 9db9 12bf 4f0f f73d f42d f33c 3606 ee3e
00000110: 7318 25be 021c e6bd 265b 053d a47f 223f
00000120: f20c 10bc dd9e 6fba 59b4 26bf 6978 20bd
00000130: 0c3c 1f3c 1587 dc3e e532 ab3a e291 11bc
00000140: 33ec 263e 5ed4 8c3e 18f9 a93e 6b9c 01bd
00000150: c00e eabd fce0 4c3d 8855 6f3e dbb6 223e
00000160: 2430 e3bc 496d 673e 5825 8cbd 03be 4b3d
00000170: 1c6f 4dbe 538d b03e 9501 263d 0158 64be

linear1.bias f4 [16]
-0.8082116 -0.30327466 0.92714083 -0.72502995 1.1026529 0.0387711 0.8162655 -0.6330267
0.4992143 0.043963432 0.16871941 0.041759297 2.7336106 -0.3464086 -0.6659996 -0.3694064
00000000: f5e6 4ebf d146 9bbe 1a59 6d3f 909b 39bf
00000010: bb23 8d3f 72ce 1e3d c7f6 503f 0a0e 22bf
00000020: 0499 ff3e 0013 343d c8c4 2c3e cc0b 2b3d
00000030: 7af3 2e40 785c b1be f37e 2abf d622 bdbe

linear2.weight f4 [1, 16]
-0.09275562 0.2850908 0.15346368 -0.18422061 0.22507143 -0.23493218 0.06927322 0.17758939
-0.31936905 0.03168027 0.18676181 -0.030562501 -1.1824566 -0.14306901 -0.085442394 -0.1368049
00000000: a9f6 bdbd 6cf7 913e 9525 1d3e 54a4 3cbe
00000010: 2079 663e 1092 70be 1edf 8d3d fed9 353e
00000020: 5784 a3be 2cc3 013d 7d3e 3f3e 365e fabc
00000030: bd5a 97bf af80 12be 6cfc aebd 9516 0cbe
