model/discriminator_adamw_bceonly_log.pth (torch, 3408 bytes, 3 tensors)

linear1.weight f4 [32, 6]
0	0xba128582	-0.0005589352
1	0xbed2399c	-0.41059577
2	0x3d03f16c	0.03221266
3	0x3e89cb06	0.26912707
4	0x3e39590b	0.18100373
5	0xbd71e454	-0.05905564
6	0x3e011aca	0.12607875
7	0x3c604898	0.013689183
8	0xbc7416ac	-0.0148979835
9	0xbd834a47	-0.06410652
10	0xbe8768bf	-0.26447102
11	0x3e2710ac	0.16314954
12	0xbc4de585	-0.012566929
13	0xbece3277	-0.40272877
14	0xbc278d95	-0.010226627
15	0xbdcde41f	-0.10053276
16	0xbe1e7b3e	-0.154767
17	0x3da8b8f1	0.082384
18	0x3e2ec982	0.17069057
19	0xbdd16ee8	-0.10226232
20	0x3ef2c684	0.4741708
21	0x3d0931ef	0.033494886
22	0xbea809fe	-0.32820123
23	0xbddec8f1	-0.1087817
24	0x3df717a5	0.12065057
25	0xbccae2f0	-0.024766415
26	0xbd72af59	-0.059249256
27	0xbe39000c	-0.18066424
28	0x3e89665b	0.26835904
29	0x3d66b680	0.05632639
30	0xbeb3b1db	-0.3509663
31	0xbed4375f	-0.41448495
32	0x3e016ff0	0.12640357
33	0xbefc6f77	-0.4930379
34	0xbe555789	-0.20834173
35	0xbda39331	-0.07987059
36	0xbe49a18c	-0.19690531
37	0xbd83566a	-0.064129665
38	0x3f09919a	0.53737795
39	0xbe83d7c7	-0.25750563
40	0x3d82b228	0.06381637
41	0x3b8d978f	0.0043210457
42	0x3e40cc45	0.18827923
43	0xbe60dfa9	-0.2196032
44	0xbdf667e2	-0.12031533
45	0x3d31874f	0.04334193
46	0x3d9343b9	0.071906514
47	0xbc366889	-0.011133322
48	0xbe1a96aa	-0.15096536
49	0x3e18a448	0.14906418
50	0x3e68b11f	0.22723816
51	0xbe59c247	-0.21265517
52	0x3e256903	0.1615334
53	0xbc372049	-0.011177131
54	0xbe443ec5	-0.1916457
55	0x3db85510	0.090005994
56	0xbe4de6e7	-0.20107614
57	0x39baec40	0.00035652705
58	0xbebab546	-0.36466426
59	0x3cc5e959	0.02415912
60	0xbde35e30	-0.11101949
61	0xbe8b980e	-0.27264446
62	0x3f3c9cfc	0.7367704
63	0x3f0eae09	0.55734307
64	0x3e26d46e	0.16291973
65	0xbe1a3d14	-0.15062362
66	0x3dc10d23	0.09426334
67	0x3e8a22bb	0.26979622
68	0x3eef142a	0.4669507
69	0x3eb962ef	0.36208293
70	0xbdefa3cb	-0.11701163
71	0x3c1b42ad	0.009476346
72	0x3ea7bda6	0.32761878
73	0x3d905cb9	0.070489354
74	0xbdb5af58	-0.08871335
75	0xbe0b63c2	-0.13612273
76	0xbe76629f	-0.24061058
77	0x3ea8e5bb	0.3298777
78	0xbe9c5ea1	-0.30540946
79	0xbe5d6f2c	-0.2162444
80	0x3e84059d	0.25785533
81	0x3dd18632	0.10230674
82	0x3d877c91	0.06615556
83	0xbd357e5e	-0.044309966
84	0xbec7d5b4	-0.3903023
85	0x3dc398e7	0.09550648
86	0x3e045147	0.1292163
87	0xbe0a9543	-0.13533501
88	0x3e5639c2	0.2092047
89	0x3d575928	0.05257526
90	0xbe903df7	-0.28172275
91	0x3d87084d	0.0659338
92	0xbe98b0d7	-0.29822418
93	0xbd31acc5	-0.043377656
94	0x3d335a54	0.043787315
95	0x3e559af6	0.20859894
96	0xbe8d4f91	-0.27599767
97	0xbea8db68	-0.32979894
98	0x3e5f377b	0.21798508
99	0xbb871609	-0.0041225
100	0x3df1efce	0.11813317
101	0xbd8e2ecd	-0.0694252
102	0xbda1db2d	-0.079031326
103	0x3c0fbaee	0.008772595
104	0xbe4741e9	-0.19458736
105	0x3d95fd45	0.07323698
106	0x3ed9d1ff	0.42543027
107	0x3e0a659f	0.13515328
108	0xbd2579cb	-0.040399354
109	0x3eb0f44f	0.34561393
110	0x3e683c6e	0.22679302
111	0x3d1235ed	0.03569596
112	0x3e23cd08	0.15996182
113	0xbce5e50f	-0.028063325
114	0x3e30936b	0.17243735
115	0x3e270e3a	0.16314021
116	0x3e995418	0.2994697
117	0xbe580446	-0.2109538
118	0xbe76c1f3	-0.24097423
119	0xbc1a7f14	-0.009429712
120	0x3d4bdba8	0.049770027
121	0x3d755814	0.05989845
122	0xbeeb8c1b	-0.4600533
123	0x3dd4d85a	0.10392828
124	0xbdc22253	-0.09479203
125	0xbf18a873	-0.59632033
126	0xbe98ecf8	-0.29868293
127	0x3d03416b	0.03204481
128	0x3ea30c22	0.31845194
129	0xbd1ba993	-0.038003515
130	0x3e869a68	0.26289678
131	0x3f03af97	0.51439804
132	0x3e2b7d60	0.16747046
133	0xbd870325	-0.06592397
134	0xbe523588	-0.20528233
135	0x3e8130a3	0.2523242
136	0x3e3b4b77	0.18290506
137	0xbd5d7a39	-0.05407164
138	0x3d34a905	0.044106502
139	0x3cd90c99	0.026495265
140	0xbd9c502c	-0.07632479
141	0x3b494d40	0.003071621
142	0xbdc71b94	-0.09722057
143	0xbe2b5ab9	-0.16733827
144	0x3e100ea3	0.14068083
145	0x3eabee2e	0.33580154
146	0xbe2d2de2	-0.16912034
147	0xbe1004ea	-0.14064375
148	0x3e4138f2	0.18869379
149	0xba9e9890	-0.001209991
150	0xbdbdf240	-0.09274721
151	0xbe3a67c1	-0.18203641
152	0x3d69219e	0.056916825
153	0xbac2aaed	-0.0014851965
154	0xbe3ff709	-0.1874658
155	0xbd9a39c9	-0.07530553
156	0x3c1def76	0.0096396115
157	0xba7b831e	-0.0009594428
158	0xbdda0361	-0.10645176
159	0xbe848955	-0.25886026
160	0xbdea9b8c	-0.114554495
161	0xbdf75763	-0.120772146
162	0xbe3fed9b	-0.18742983
163	0xbeb90b87	-0.36141607
164	0xbdcc333f	-0.09970712
165	0xbee47ee1	-0.4462805
166	0x3e9d23a8	0.30691266
167	0xbed66a68	-0.41878057
168	0x3e27e022	0.16394094
169	0xbda03c30	-0.0782398
170	0xbe9ea14c	-0.30982435
171	0x3e1bbfe2	0.15209916
172	0x3dcb6f02	0.099332824
173	0xbc9ce105	-0.019150266
174	0xbe7db179	-0.24774732
175	0x3cee92f8	0.029122815
176	0x3edb4f35	0.42833868
177	0xbe726ab9	-0.23673524
178	0x3e53245e	0.20619342
179	0xbe03cb2a	-0.1287047
180	0x3e7ad1fb	0.24494164
181	0xbf031180	-0.5119858
182	0x3e76df05	0.24108513
183	0xbd71c296	-0.059023462
184	0x3e15aae6	0.14615974
185	0xbd21fa30	-0.039545238
186	0x3ed02d43	0.40659532
187	0x3e88ffc9	0.2675765
188	0x3d2e101a	0.042495824
189	0xbd32be98	-0.043638796
190	0xbc901edf	-0.017592845
191	0x3caf4462	0.021394912

linear1.bias f4 [32]
0	0x3c63e1f2	0.01390885
1	0xbe28c76a	-0.1648232
2	0x3d9f418c	0.07776174
3	0x3e67bb12	0.22629955
4	0xbee5cc0d	-0.4488224
5	0xbf032146	-0.51222646
6	0x3e68cf0f	0.22735237
7	0xbcb6df33	-0.022323227
8	0x3e89cdfc	0.26914966
9	0xbf1abdda	-0.6044594
10	0x3f0b4598	0.54403067
11	0x3d2365ce	0.03989201
12	0xbf135708	-0.57554674
13	0x3dcfa317	0.10138529
14	0x3e97ffa3	0.29687223
15	0xbd801880	-0.06254673
16	0xbe0c4ad4	-0.1370042
17	0xbe38432f	-0.17994379
18	0x3eba4f9a	0.36388856
19	0x3d99aa5d	0.07503197
20	0xbe776c2a	-0.24162355
21	0x3e979daf	0.2961249
22	0x3dd50265	0.10400847
23	0xbdc77c9d	-0.09740565
24	0x3dd8b69b	0.10581704
25	0xbe5da091	-0.21643282
26	0xbec0d60b	-0.37663302
27	0x3dc205f7	0.09473794
28	0xbcddbac7	-0.027066601
29	0xbdf311f1	-0.118686564
30	0x3ea4368f	0.32072875
31	0xbedd4bcf	-0.432219

linear2.weight f4 [1, 32]
0	0x3dec0fb0	0.1152643
1	0x3d10b83c	0.03533195
2	0xbd80b3e6	-0.06284313
3	0x3d813acd	0.063100435
4	0x3d91e28f	0.07123291
5	0x3ca6ebcf	0.020376114
6	0x3d81401f	0.06311058
7	0x3dc020d3	0.09381261
8	0xbd91dc16	-0.07122056
9	0xbda98be9	-0.08278639
10	0xbdd871f5	-0.105686106
11	0xbd078add	-0.033091415
12	0xbd7632ee	-0.060107164
13	0x3e09178e	0.13387892
14	0x3db73ae2	0.08946778
15	0xbcc4ff01	-0.024047377
16	0x3c82195d	0.015881235
17	0xbd53df98	-0.051726907
18	0x3d7c1a05	0.06154825
19	0x3db3a427	0.08771544
20	0xbe0ed937	-0.13950048
21	0xbd7b3147	-0.06132629
22	0x3e07b3c1	0.13252164
23	0x3e700268	0.23438418
24	0x3d4cf452	0.05003769
25	0xbdc451ac	-0.0958589
26	0x3e1e76aa	0.15474954
27	0xbd776916	-0.060402952
28	0xbe06a35a	-0.13148251
29	0xbd8a633d	-0.067572095
30	0xbd632920	-0.05545914
31	0xbdc09437	-0.0940327
