model/discriminator_parameters_latest.pth (torch, 2840 bytes, 3 tensors)

linear1.weight f4 [16, 6]
0	0x3d670fb7	0.05641147
1	0x3da8efcb	0.08248862
2	0xbe818b09	-0.25301388
3	0x3deedf19	0.11663646
4	0x3e5cbf20	0.21557283
5	0xbec30626	-0.38090628
6	0x3bca363c	0.006171016
7	0xbb975b5e	-0.004619046
8	0xbe51d9ff	-0.20493315
9	0xbc5bafad	-0.013408584
10	0x3e8e44a0	0.27786732
11	0x3f937028	1.1518602
12	0x3d9354d5	0.07193915
13	0xbe49c077	-0.19702326
14	0xbf8040bd	-1.0019757
15	0x3e6da929	0.2320906
16	0xbe09fe68	-0.13475955
17	0xbf0f3381	-0.55937964
18	0x3d97f362	0.074194685
19	0xbebdffe8	-0.37109303
20	0xbf27b32d	-0.65507776
21	0xbcedcb98	-0.029027745
22	0xbeda1f6b	-0.42602095
23	0x3e9af5d6	0.30265683
24	0x3d455c1b	0.04818354
25	0xbdc21716	-0.094770595
26	0xbeac4c0d	-0.33651772
27	0x3d659440	0.056049585
28	0xbeb9e310	-0.36306047
29	0x3f2ff6c6	0.6873592
30	0xbd999bf3	-0.07500448
31	0xbdb61b41	-0.08891917
32	0x3e6a61f4	0.22888929
33	0xbd1cc518	-0.0382739
34	0x3ed46f8b	0.4149135
35	0xb965be37	-0.00021910002
36	0x3e32ba1d	0.17453809
37	0xbe1dd57c	-0.15413469
38	0x3e4a3b96	0.19749293
39	0xbcd460a2	-0.025924984
40	0x3f007731	0.5018187
41	0x3e58a0f3	0.21155147
42	0x3ecc4ef6	0.39903992
43	0xbe0da95b	-0.13834135
44	0xbdaecd3a	-0.085352376
45	0xbe09171a	-0.13387719
46	0x3efb91ad	0.4913458
47	0xbee34980	-0.44392014
48	0x3e187a24	0.14890343
49	0xbe1e1b8a	-0.15440193
50	0x3f11256d	0.5669773
51	0xbdad8414	-0.084724575
52	0xbe4a0a10	-0.19730401
53	0x3e4edf03	0.2020226
54	0x3c0e4bcc	0.008685064
55	0x3d7819d5	0.06057151
56	0x3f4dc711	0.80381876
57	0xbd92d4ce	-0.071694955
58	0xbe4ee38e	-0.20203993
59	0xbe84fcf9	-0.25974253
60	0x3e71d9b3	0.23618202
61	0xbde959ea	-0.11394103
62	0xbf106350	-0.5640154
63	0x3e923c8f	0.28561828
64	0xbe147c47	-0.14500533
65	0xbe9643b7	-0.29348537
66	0x3b857bf4	0.0040736143
67	0x3babc861	0.005242393
68	0x3f330195	0.6992429
69	0xbc88d25e	-0.016701873
70	0x3d90f17c	0.070773095
71	0x3f9e75be	1.2379682
72	0xbe24dfff	-0.16101073
73	0xbdcfe2e6	-0.10150699
74	0x3e889683	0.2667733
75	0xbde5745b	-0.11203834
76	0xbe945831	-0.28973535
77	0x3fa839e3	1.3142666
78	0x3c01694f	0.007898643
79	0x3c646bda	0.013941729
80	0x3e45ef59	0.19329585
81	0x3c692781	0.01423061
82	0x3dae47e6	0.08509807
83	0x3f6e0c4a	0.929875
84	0x3e0a2549	0.13490786
85	0xbdff64bd	-0.12470386
86	0x3f8fb88c	1.1228194
87	0x3e87b155	0.2650248
88	0x3cf76605	0.030200014
89	0x3f147c89	0.58002526
90	0x3e0ebad5	0.13938458
91	0xbd5fed75	-0.054669816
92	0x3f8bb604	1.0914922
93	0x3eacd94e	0.3375954
94	0x3e1833e7	0.14863549
95	0x3f231a2f	0.6371183

linear1.bias f4 [16]
0	0x3e99b378	0.30019736
1	0xbed7b67c	-0.42131412
2	0xbe963f57	-0.293452
3	0xbcad5278	-0.021157488
4	0x3e3c9dea	0.18419614
5	0x3eb1c077	0.34717152
6	0xbe13510d	-0.14386387
7	0x3e798f83	0.24371152
8	0x3e87224d	0.26393357
9	0x3f6f1ddc	0.93404937
10	0xbd96c698	-0.073620975
11	0x402e953b	2.7278583
12	0xbd3baabe	-0.04581713
13	0xbfdb4e6d	-1.7133309
14	0x3e591356	0.21198782
15	0x3ee57037	0.44812176

linear2.weight f4 [1, 16]
0	0xbe0ed42c	-0.13948125
1	0x3e6b09fc	0.22953027
2	0xbe32f09b	-0.17474596
3	0xbcdce547	-0.026964797
4	0xbcf0746f	-0.029352395
5	0xbe17ba18	-0.14817083
6	0x3d7d3c6a	0.061825193
7	0xbd6fed78	-0.058576077
8	0x3e297f7f	0.16552542
9	0x3eb23025	0.34802356
10	0xbdf9ba72	-0.12193765
11	0xbf793f74	-0.97362447
12	0x3e5e5ee6	0.21715888
13	0x3f0f32d8	0.55936956
14	0x3e96a1a3	0.29420194
15	0x3d83cdd4	0.06435743
