model/generator_parameters.pth (torch, 7626 bytes, 6 tensors)

linear1.weight f4 [16, 36]
000000 45 c7 a3 3d ec ff 46 b9 9c e3 83 bd 43 ed 02 bb
       0.07996992 -0.0001897809 -0.064398974 -0.0019977845
000010 d7 c6 09 be 1e c5 80 3d e2 42 0a 3c 9b 07 3a 3c
       -0.13454758 0.06287597 0.008438798 0.011354352
000020 cb 2f bf 3d a5 8c e3 3c ae 56 17 be 4d a7 d9 3c
       0.09335288 0.027777025 -0.1477916 0.026569033
000030 2d 8e 2d 3d 89 05 43 bd 59 e2 3d bd ac 8b 1c 3c
       0.042371918 -0.0476127 -0.04635844 0.009554785
000040 ec ba e6 3d 99 ef 24 be 6b 9c 84 bd b8 86 b6 bd
       0.11266121 -0.16107024 -0.06475147 -0.08912414
000050 f4 aa 55 bc ca dc 92 bd 5f 95 6b bc 27 bb 62 3c
       -0.013041247 -0.071710184 -0.014378875 0.013838566
000060 b3 8e 6d 3d a3 ae 97 bc 12 7e da bc 0e 83 25 bd
       0.057997417 -0.01851589 -0.026671443 -0.040408187
000070 ae e4 2c 3d 94 94 47 bc d3 14 44 bd 3c ce 35 bd
       0.042210273 -0.01218142 -0.047871422 -0.044386134
000080 9f 2a 95 bd 69 c3 b3 bd 0d 5b dc bd a6 2a 85 3d
       -0.0728352 -0.08777506 -0.10759554 0.06502275
000090 84 fa 21 be 17 3f 31 bd 24 64 68 3d 60 eb 72 bd
       -0.1581822 -0.043273058 0.056736127 -0.059306502
0000a0 95 74 7d 3d fd 34 9b bc bb 9d d5 bc 31 c7 c2 3d
       0.06187876 -0.018946165 -0.026076188 0.09510649
0000b0 a2 3e b3 3d 63 b6 61 bd 2a 6b a3 ba 5a 30 a7 bd
       0.08752181 -0.05510558 -0.001246785 -0.08163519
0000c0 0f af e2 3d cd f5 a2 3d 30 ab 54 3c 7e 5d 8e 3d
       0.11068546 0.07957039 0.012980267 0.06951426
0000d0 dd 9c da bd 5e e8 32 3e 93 0d b5 3d 5d a6 0b 3e
       -0.106744505 0.17471454 0.0884048 0.13637681
0000e0 24 e4 11 be a0 0f 00 bd 1d 34 eb 3d c1 54 da bd
       -0.14247185 -0.0312649 0.11484549 -0.10660697
0000f0 6c d4 69 bd 90 eb 82 3d 97 37 04 3e 07 7b 32 3d
       -0.057087347 0.06392586 0.12911831 0.04357436
000100 b5 55 7e bd ce a8 af 3d bc 61 7b 3d dd 6d fb bc
       -0.062093455 0.08577119 0.061372504 -0.030692035
000110 e1 e0 30 bd 0a d1 da 3c 7b 42 39 3d c1 04 d6 3d
       -0.04318321 0.026711006 0.045229416 0.104501255
000120 22 33 2d 3d 88 7c 21 3c 86 22 82 3d fb b9 10 bd
       0.042285092 0.009856351 0.06354241 -0.035333615
000130 f7 a4 7b ba 11 4a 17 bd 5b 14 6e 3a a0 8d ac 3b
       -0.0009599472 -0.03693587 0.00090820127 0.0052659065
000140 d2 54 f7 bc e1 dc 43 3d 25 5a ca bb a8 e9 87 bc
       -0.030191813 0.04781807 -0.006175297 -0.016590908
000150 6a 8c 1c bb 0b 58 0a bd 04 cf 93 bc 69 e4 87 3b
       -0.0023887404 -0.03377537 -0.018043049 0.0041471017
000160 12 1f bc 3d d6 bf 27 bd b4 2b 21 bd 50 36 4f 3c
       0.09185614 -0.040954433 -0.03934832 0.012647226
000170 fb 14 b2 3c 43 8c 0a bd 28 17 57 bc 64 ef 96 3d
       0.02173852 -0.03382517 -0.0131280795 0.07369879
000180 71 0d 35 3d 2c e1 f1 3c d2 02 a2 ba e1 23 b3 3b
       0.04420227 0.029526316 -0.001236046 0.0054669236
000190 60 b1 1e bd 9e 8b 00 3d 53 68 49 bd e7 a4 30 bd
       -0.038743377 0.03138315 -0.049171757 -0.043126013
0001a0 d7 3a 0d bc b2 90 8d bc fa 06 bc be 28 2e 02 3c
       -0.008619986 -0.01728091 -0.36724073 0.007945575
0001b0 50 38 7f bc 62 86 03 bd 60 4b b6 3b 89 be c6 3c
       -0.015577391 -0.03211058 0.0055631846 0.024260776
0001c0 6d a1 13 3d 71 8e af bd c4 81 bb bc 94 6a a0 3d
       0.03604262 -0.085720904 -0.022889026 0.07832828
0001d0 4a 90 2e bd 4d 8e 18 3d df 7b 55 bd 11 f6 22 3d
       -0.042618074 0.037245084 -0.052120086 0.03978545
0001e0 57 31 16 bd 9f a2 1b 3c 97 b2 81 3d 44 56 44 bb
       -0.036668148 0.009499221 0.063328914 -0.0029958645
0001f0 2b b9 fb bd cd 55 91 3c 9f 5d 80 3c 07 d5 37 3d
       -0.12291177 0.017741108 0.015669642 0.044880893
000200 41 b9 8e bd 13 4a 1b bd 65 37 d8 3c 53 2d 2d bd
       -0.06968928 -0.03791244 0.026393602 -0.042279553
000210 12 94 ba bd 5d 32 9f bc 86 c6 35 bd 8d b6 b6 3c
       -0.091102734 -0.019433195 -0.04437878 0.022303844
000220 d3 2f 73 bd 63 d2 52 bc 8d 2c 8e 3c 50 5c 86 bc
       -0.05937178 -0.012867543 0.017355228 -0.01640144
000230 16 22 d3 bd cf a0 12 be 4d d7 ce 3e ea 3a 3f bc
       -0.10309236 -0.14319156 0.40398636 -0.011671761
000240 aa 9e f5 3d e2 2c 79 3d 4a 60 f6 3d 58 3b ca bd
       0.119931534 0.06083382 0.120300844 -0.098746
000250 8c 0d 91 bc da 5b 1e 3d 47 a0 5d 3d 1d 1f 5a be
       -0.017706655 0.038661815 0.05410793 -0.21300931
000260 76 85 c2 bd 21 71 f1 3d fc 3c 29 3e e5 e6 c7 3b
       -0.09498112 0.11789156 0.1652717 0.006100523
000270 54 06 48 bd 6a 57 01 be d1 c6 a9 3b 2f 78 09 3e
       -0.04883416 -0.12631002 0.0051811715 0.13424753
000280 5c 60 57 3e 83 93 07 bd e5 f5 f7 bc 88 4c 5d 3d
       0.21032852 -0.033099663 -0.030268619 0.054028064
000290 7a 8d 5f 3e 7d 3b c8 3d 6d b8 0d bd 16 c4 07 3d
       0.21831313 0.097769715 -0.03459971 0.033145986
0002a0 2e eb 5d bd d6 15 d1 3d a7 c4 8d 3d 46 ff 99 39
       -0.054179363 0.10209243 0.06922274 0.00029372628
0002b0 5d 67 3a 3e c3 b0 5a 3d 30 a0 f5 3c b7 8c a7 3a
       0.18203492 0.05339123 0.02998361 0.0012783025
0002c0 ec ce 61 bc cf 24 13 bd e2 82 10 be 1b d0 6f 3d
       -0.013782244 -0.035923775 -0.14112428 0.058548074
0002d0 5f 78 43 3d f6 5b 6c 3d 67 46 21 bb 99 33 43 3d
       0.047722217 0.05770489 -0.0024608613 0.04765663
0002e0 c2 7b f6 3c 73 2e 9d 3c 9b b1 94 bc 7a 72 e2 bc
       0.03008831 0.019187188 -0.018151095 -0.027642477
0002f0 a6 a5 03 3e fe 07 6c 3d 52 47 be 3d 08 2d 00 be
       0.12856159 0.05762481 0.09290947 -0.12517178
000300 80 64 ef 3d da ff 58 bd c5 47 da bd f9 03 f8 bd
       0.11689091 -0.052978374 -0.1065822 -0.12110133
000310 c0 a9 0d 3e dd 07 b4 3c cc f4 45 bc cc 8e eb 3b
       0.13834286 0.021976406 -0.01208229 0.0071886536
000320 99 47 e1 3b 2e ee 9a bd 86 03 9b bd 9f 48 0a 3e
       0.00687499 -0.075649604 -0.075690314 0.13504265
000330 91 ff 9d 3d 85 aa 4c 3d d3 59 cf 3d a6 07 cb bd
       0.07714761 0.049967308 0.101245545 -0.09913568
000340 e9 f2 cc 3c 18 62 41 3d 7e 83 9e bd 75 f4 00 bc
       0.025018172 0.04721269 -0.07739924 -0.007870783
000350 5a 92 08 bd d4 46 e8 bd cc 4d 02 3e de 62 0f 3e
       -0.033342697 -0.113416344 0.1272499 0.14002559
000360 be b9 df bb b3 dc 74 3a 8c 12 a8 bb 74 ba 8e 3b
       -0.006827562 0.0009340748 -0.005129164 0.004355723
000370 f1 db ea 3b 93 6a c0 3b 5b b3 c7 ba bf 95 80 3b
       0.0071673323 0.0058720796 -0.0015235947 0.003924101
000380 c7 03 89 3a fb b0 2b bc 7d 03 ad 3a 90 63 3b bb
       0.0010453396 -0.010479207 0.0013199892 -0.002859328
000390 b8 43 58 3a e9 25 01 3c 4b 4b e5 38 c1 5b f4 bb
       0.0008249837 0.007882574 0.00010933595 -0.007457227
0003a0 5d 15 89 bb a4 5e 37 3b 0b ce 55 39 16 46 a5 bb
       -0.004183455 0.0027979994 0.0002039002 -0.0050437553
0003b0 48 32 51 bb 26 f8 74 3b f5 11 c1 3a 7b 95 14 3b
       -0.003192084 0.0037379353 0.0014730083 0.0022672105
0003c0 ee 6c f1 3b 09 f8 af bb 60 94 d1 ba 7c 92 3b 3a
       0.0073677218 -0.0053701443 -0.0015989654 0.0007155312
0003d0 ac 84 7a bb c4 c2 77 bb 7d dc 48 bb a4 f2 ce 3b
       -0.0038226051 -0.0037805298 -0.0030649 0.006315546
0003e0 28 c3 7b ba 3b 43 05 ba 2f e0 15 be 52 57 1d 3d
       -0.00096039707 -0.00050835655 -0.146363 0.038413353
0003f0 cf 44 f1 bd 39 ab a5 bd 21 36 50 3d bf 58 01 3e
       -0.11780702 -0.08089299 0.05083287 0.1263151

linear1.bias f4 [16]
000000 35 bb 7d bf ba b3 87 bf 03 3e 14 40 94 45 0b 3f
       -0.9911378 -1.0601723 2.316285 0.5440304
000010 ff a3 31 bf 3f 1d ed bf 0b f9 11 c0 51 e2 dd be
       -0.69390863 -1.852455 -2.2808254 -0.43336728
000020 b9 03 9c 3f ff 0a 32 3f 8c 23 19 40 a9 ef 7a bf
       1.2188636 0.6954803 2.3927946 -0.9802194
000030 06 ec 26 40 ca 85 83 bf 71 8b e4 3f d6 77 a4 3d
       2.6081557 -1.0275204 1.7855054 0.080306694

linear2.weight f4 [32, 16]
000000 93 a0 40 3e a6 3f 75 bd 8b b5 65 bf 51 4c 22 3d
       0.18811254 -0.059875153 -0.8973014 0.039623562
000010 83 f6 8b 3e 85 aa 74 3e a5 6b 21 3e ff 12 3d 3d
       0.2733651 0.23893173 0.1576372 0.046160694
000020 a0 a9 89 3e d2 20 f9 bd 9d 4b 53 bf 5a cc dd 3d
       0.26887226 -0.12164463 -0.8253725 0.108299926
000030 26 b4 16 bf c3 ee a0 3d 4d 42 91 be 96 86 86 3e
       -0.58868635 0.0785804 -0.28370896 0.26274556
000040 58 8d bd bc e2 ee 41 be 5b 36 24 3e f2 15 61 3e
       -0.023138687 -0.18938783 0.1603636 0.21981028
000050 a8 d5 8a 3c 2f dd 24 3d 62 7a 48 bf b1 ad 9b 3d
       0.016947582 0.04025 -0.7831174 0.076014884
000060 20 5a 36 3e c1 c3 3d 3e 99 27 05 3f 8c c5 5f bc
       0.17807817 0.18531705 0.52013546 -0.013657939
000070 5d 18 1f 3f fb f6 8f 3d 59 ca 69 3e 9d ee 14 3d
       0.6214655 0.0702953 0.22831096 0.03636037
000080 5d f9 98 3d 35 2e a4 bd 26 33 3c 3f 7c b8 c1 3e
       0.07469437 -0.08016626 0.73515546 0.37836063
000090 21 c7 73 3c 4c 16 68 be f2 6b 45 be fb d6 af ba
       0.014879019 -0.22664756 -0.19279459 -0.001341551
0000a0 98 a7 39 be 5b 76 63 3c db fa 3f 3f a8 41 5b 3d
       -0.18130338 0.013883199 0.7499215 0.05352941
0000b0 e5 84 82 3f d6 fe 31 3e af 79 e8 3e f8 64 0f bd
       1.0196806 0.17382368 0.45405337 -0.0350084
0000c0 f6 fd df bd 34 03 84 3e f9 18 3e 3f 52 d5 22 be
       -0.10937111 0.25783694 0.74256855 -0.15901688
0000d0 36 20 c5 3d e8 a1 38 be 1f bb 3b 3e 05 9b 46 3e
       0.096252844 -0.18030512 0.183331 0.19395073
0000e0 5d 22 2a be 1d 47 75 3e 7a 52 47 3f e0 3a 0f be
       -0.16614671 0.23952909 0.77860224 -0.13987303
0000f0 39 8c 61 3f 03 c2 76 3d 6c c3 cf 3e f5 46 a5 bd
       0.8810459 0.060243618 0.40578783 -0.080701746
000100 4c e2 ae 3d 60 9b 64 3e e5 f9 15 3e 41 ac 41 bd
       0.085392565 0.22324896 0.14646108 -0.047283415
000110 19 0f b5 3e e2 5e 86 3d 63 bc 5e 3f 08 b1 8e bd
       0.3536308 0.06561066 0.87006205 -0.0696736
000120 e3 78 b0 be a4 41 33 be 74 10 94 be ed 1a 3f 3e
       -0.3446723 -0.17505509 -0.28918803 0.18662615
000130 fd ea 93 be 8a 6f c6 3e 18 30 89 3e d4 27 ef 3d
       -0.2889022 0.38756973 0.26794505 0.116775185
000140 5d ca e7 3d 6e 93 e6 3d ea 31 6a 3f 6c f8 c2 3e
       0.113178946 0.11258589 0.9148241 0.38080156
000150 78 76 a6 be 17 e0 69 bd e6 a0 7b be 2c a4 ca bd
       -0.3251226 -0.057098474 -0.24573097 -0.098945946
000160 32 ac 37 3e 52 ac a8 3e f7 7d 20 3f d9 2c 6d be
       0.17936781 0.3294397 0.6269221 -0.2316164
000170 e7 fd 30 3f b4 09 f1 3d 09 f5 09 3e 53 13 10 3e
       0.69137424 0.11769429 0.1347238 0.14069872
000180 d9 24 c9 3d 9a 44 59 3e 16 34 a4 be b6 85 f1 bc
       0.09821481 0.21217576 -0.32070988 -0.029482704
000190 73 65 ba 3e ff b9 29 3e fa 1f 45 3f 58 3d 07 3e
       0.36405525 0.16574858 0.7700192 0.13206995
0001a0 0f c7 51 be 56 cc 27 3e 0d 8c 10 be 5a 70 6c 3e
       -0.20486091 0.16386542 -0.14115925 0.23089734
0001b0 69 41 c7 be 2c 22 24 3e dc f5 26 3b 54 9b b1 3d
       -0.3891709 0.1602866 0.0025476133 0.086722046
0001c0 b5 b1 2f bd c9 a0 fa 3d a7 e0 21 3f cf 44 a5 3d
       -0.042894084 0.122376986 0.6323342 0.08069765
0001d0 5c 90 4f 3e 06 7f aa 3d a2 17 78 be ff 4c bc bc
       0.20269912 0.08325009 -0.24227765 -0.022985933
0001e0 1a 3f 35 bd d8 29 39 3e 61 06 58 3f 47 1c 56 ba
       -0.04424963 0.18082368 0.84384733 -0.0008167666
0001f0 c1 96 38 3f 6d 34 40 bd ec 60 49 3e 9f fc 54 3d
       0.7210503 -0.046924997 0.19665879 0.05199873
000200 10 2c 8b 3e ea 63 2b 3e db 8b 28 bd 1e 31 91 bc
       0.27182055 0.16737333 -0.041149 -0.017723616
000210 71 37 b1 3e bc 84 1c 3e 63 b4 2a 3f 31 2e 77 bb
       0.3461261 0.15285009 0.666815 -0.0037716741
000220 fd d4 3b be 72 4a a2 bd 0e 00 8f 3d b5 e3 f5 3d
       -0.18342967 -0.079243556 0.06982432 0.12006322
000230 27 56 5d 3b bd d7 3c 3e b5 cc 6e 3e 3d 96 4d be
       0.0033773275 0.18441673 0.23320277 -0.20076843
000240 16 92 83 3e 96 15 3a 3e cb 98 85 bc b0 66 5e be
       0.25697392 0.18172297 -0.016308209 -0.2171886
000250 d3 e3 7c be 97 4a 56 be b3 b3 86 bf 9b 4d cb 3c
       -0.24696283 -0.20926891 -1.052359 0.024817279
000260 a0 08 e0 3e 54 7e 8a 3e 46 b4 31 3e 57 6c 30 be
       0.4375658 0.27049506 0.17353925 -0.17228828
000270 b4 6b 84 bd b5 03 0f 3e 22 67 22 bd e1 20 c2 3e
       -0.06465855 0.13966258 -0.039649136 0.3791571
000280 12 9c 5c 3e 24 90 8c 3e f8 ba 28 be 6b 09 b3 3d
       0.21543911 0.2745372 -0.16477573 0.08742031
000290 fe 3d 81 3e f8 48 c3 3d 0b 8f 72 3f 9e e8 cc bb
       0.2524261 0.09535402 0.94749516 -0.006253316
0002a0 e5 55 ee be a4 08 fd bd 3f 85 ab be f7 3c 72 3d
       -0.46549907 -0.12355164 -0.33500096 0.05914017
0002b0 3f e7 e4 be 14 94 3d 3d bc e3 17 bf f7 9d 22 be
       -0.44707677 0.046283796 -0.5933187 -0.15880571
0002c0 34 40 78 3e 42 a7 75 bd 51 28 0e bf 17 49 d4 3d
       0.24243242 -0.059973963 -0.5553027 0.10365503
0002d0 e4 bc 61 3e dc a8 93 3e 46 ab 8d be e2 34 8c 3d
       0.22044712 0.28839767 -0.27669734 0.06846024
0002e0 89 55 ea 3e bc 73 84 3e 45 59 cd be 4d 5c 25 3d
       0.45768383 0.25869548 -0.4010717 0.040371228
0002f0 e5 46 1c bf 7e dd 1c ba d9 33 e8 3d f0 df 74 3e
       -0.61045676 -0.00059839326 0.11338014 0.2391355
000300 ae be d2 bd 42 3c ef 3d b4 e4 18 bf 6f 88 4b bd
       -0.102902755 0.11681415 -0.59723973 -0.04969066
000310 3e c7 2f 3e 15 01 27 3e 7b f6 03 3f 97 fa 00 3c
       0.17165849 0.16309007 0.51547974 0.007872245
000320 4c 95 6f 3e 87 37 87 bd 43 c7 fe be 79 5e 89 3e
       0.23396796 -0.06602388 -0.497614 0.2682989
000330 ed c8 f1 be 90 65 2f 3e f4 4b 85 bd 06 ea e3 3d
       -0.47223607 0.17128587 -0.065086275 0.11128621
000340 4b da 61 3e f9 97 48 3e ed ca e4 be cb 09 49 3c
       0.22055928 0.19589223 -0.4468607 0.012270401
000350 e2 c5 cf bb 35 87 c1 3e 09 c2 8c be 08 44 8d bd
       -0.006340728 0.37798467 -0.27491787 -0.068977416
000360 ea 6b 0e 3f 72 6e 76 3e ca d1 a5 be ce 3f 16 3d
       0.55633414 0.24065569 -0.3238662 0.036681943
000370 1e 29 a9 be 6f dc 1b 3d 6c 8f 04 3e 3d 51 be 3d
       -0.33039182 0.03805202 0.12945336 0.09292839
000380 92 db c7 bb f1 21 2d 3e 39 c3 79 3e 5b 76 25 bd
       -0.006099173 0.16907479 0.24390878 -0.040396076
000390 87 b7 03 be b1 02 30 3e 9e eb 0c 3f fe db c6 3d
       -0.12862979 0.17188527 0.55047023 0.09709929
0003a0 2c 48 d4 be f4 f2 8d be 93 f0 e2 3e b0 b0 b2 3d
       -0.41461313 -0.2772442 0.4432417 0.08725107
0003b0 5b a6 c1 3e 17 cc 65 3e 92 37 3a 3e c7 13 ad bd
       0.37822232 0.22441135 0.18185261 -0.08451038
0003c0 bf 5b 92 3d fd 76 e7 3e 05 db 9d bf 2f bd f4 3d
       0.071464054 0.45207968 -1.2332464 0.119501464
0003d0 73 0e f3 3d bc e5 fc 3e 25 c0 e4 3f 59 82 cb 3d
       0.1186799 0.49394023 1.7871138 0.09936971
0003e0 69 7e 70 bf db 5c e7 b9 25 88 ad bf 7c ea 86 3e
       -0.93942887 -0.00044128936 -1.3557173 0.26350772
0003f0 42 47 ea bf 3e 48 83 3e 7d 9e 17 c0 49 34 c9 3d
       -1.8302996 0.25641054 -2.3690484 0.09824426

linear2.bias f4 [32]
000000 08 e9 12 bf 98 46 f2 3e 22 3f 3a 3f 00 6e 0e 3f
       -0.5738683 0.47319484 0.72752583 0.55636597
000010 30 53 23 be 8e 7e 3c 3f 3b cd b8 bd 9d cd 95 3f
       -0.15949702 0.7363061 -0.090235196 1.1703373
000020 7b 25 aa 3c c4 d6 c8 3e 06 24 a6 be 3b 52 d5 be
       0.020769825 0.39226353 -0.3244936 -0.416643
000030 80 c6 cf be a2 53 2b be 02 a8 4c bd d0 94 1b c0
       -0.4058113 -0.16731122 -0.049964912 -2.4309578
000040 cc 71 82 3e 28 64 15 3e 5a f3 14 c0 9c 53 33 bf
       0.25477445 0.14588988 -2.327353 -0.7004945
000050 6f 4f 23 bf 4d fd a1 3e 6c 77 01 3e 91 1b 1a bf
       -0.6379308 0.31638566 0.12643212 -0.60198313
000060 24 67 8f bc 55 c6 45 bf 33 4c 62 be 2c e8 45 3f
       -0.017505236 -0.77255756 -0.2209938 0.7730739
000070 49 53 7a 3f 0c e7 d1 3e 20 8b 44 be fd 27 19 3f
       0.97783333 0.40996587 -0.19193697 0.5982664

linear3.weight f4 [2, 32]
000000 04 22 af be 66 36 b0 3e 66 2e 04 3f f8 71 06 3f
       -0.3420564 0.34416503 0.516333 0.5251765
000010 28 e7 50 be 24 bc 01 3f 07 76 4a be 9d 04 df 3e
       -0.20400679 0.50677705 -0.19771586 0.43558207
000020 b9 a6 0e be 25 7b 39 3e 5b 3b e5 be 69 e3 98 be
       -0.13930787 0.18113382 -0.44771847 -0.29861
000030 2f 7a bc be 06 ca 85 be 4b b8 24 3d 58 e2 b9 bf
       -0.3681197 -0.26130694 0.040214818 -1.45222
000040 2e 6a 8a 3e 7c 5b 6e 3e 1f d7 c4 bf 04 07 d0 be
       0.27034134 0.23277086 -1.537815 -0.40630352
000050 31 d8 cc be 52 11 9f 3e 6d 55 71 3e 66 14 f8 be
       -0.4000869 0.31067902 0.23567744 -0.48453063
000060 c5 aa 99 3d 81 60 f5 be 9e f5 07 bf bb 80 07 3f
       0.07503275 -0.4792519 -0.5310916 0.529308
000070 8a 67 1d 3f eb 68 01 3f 21 90 17 be 58 49 de 3e
       0.61486113 0.5055072 -0.14801075 0.43415332
000080 9a c9 56 3e 96 c0 5c 3e 3a 01 2a be e2 ba cd be
       0.20975342 0.2155784 -0.1660203 -0.40181643
000090 30 0d da be cb f3 3d 3d e5 f2 4a be 0e 02 83 be
       -0.42588186 0.046375077 -0.1981922 -0.25587505
0000a0 99 1d af be 56 24 07 3f df e3 50 bf ca 56 d4 3e
       -0.3420227 0.5278982 -0.81597704 0.41472465
0000b0 74 40 77 3d 4b 13 b6 3e 4c e3 42 be 38 fc 05 c0
       0.0603642 0.35561594 -0.1903202 -2.0935192
0000c0 97 01 d9 3e 46 a0 b4 3e df 5b 11 c0 d2 25 93 bb
       0.42384025 0.3527853 -2.2712324 -0.0044905925
0000d0 3d 98 b4 3e b7 6d c2 3e 98 cb bc be 31 5f fc 3e
       0.352724 0.3797433 -0.3687408 0.49291375
0000e0 1e b3 d9 be 8b ec 10 3e 6d e4 0c bf aa 49 68 be
       -0.42519468 0.14152734 -0.5503605 -0.2268435
0000f0 9e ba e6 bd 12 16 28 be fb c2 83 be 73 a6 d4 3e
       -0.11266063 -0.16414669 -0.25734696 0.4153324

linear3.bias f4 [2]
000000 cb 9d 1c 3f 3c 62 89 be
       0.6117827 -0.2683276
