model/generator_parameters_latest.pth (torch, 14608 bytes, 6 tensors)

linear1.weight f4 [32, 20]
-0.6858978 -0.5377427 -0.64143723 -0.37775454 0.7403556 0.2899351 -0.77281266 -0.34269673
-0.7473015 0.070868924 0.8219954 0.6913231 -0.45792758 0.54927653 -0.4127727 0.5866124
0.095038556 0.22515419 -0.11435729 0.1686258 -0.96896034 0.35798252 -0.6147635 0.37132233
0.90368235 0.6124649 -0.8641355 0.5837705 -0.48411492 -0.30333343 0.7417889 0.94373
-0.84445006 0.78410727 -0.51764756 0.59687567 -0.3874067 0.08908306 0.0009437948 0.06751832
-0.0035274632 -0.22737293 0.10020664 -0.40605977 -0.13327634 -0.13039625 0.08086693 -0.31721768
-0.0823216 0.20075561 -0.004155232 -0.14224108 0.0929166 -0.014927134 0.08269205 0.013044531
-0.08696172 -0.0010832263 -0.16447188 -0.13123977 0.62405676 0.628989 0.6500998 0.5790101
-0.53879035 -0.64401805 0.66580296 -0.6823642 0.7208045 0.8070937 -0.71416736 -0.39723122
0.7243998 -0.6772328 0.6042093 -0.6666311 0.23279786 -0.14973308 0.22579452 -0.06384321
-0.34130764 0.20664975 -0.26628065 0.11844215 0.14576973 0.22261669 -0.29944307 0.46964243
-0.20664759 -0.2790103 0.18210442 0.37795374 -0.26694104 0.4137933 -0.2920901 0.19937068
0.07038796 -0.257018 -0.024161832 -0.3331056 -0.1998664 -0.40862408 -0.16436528 -0.46927452
0.23699807 0.23906454 -0.23486322 0.4564383 -0.23908669 -0.39430577 0.23201771 0.15118536
-0.25286013 0.26639035 -0.40055698 0.29986465 0.27327955 -0.2343496 -0.084338285 -0.027306389
-0.75471264 -0.18167962 -0.58111626 -0.41912457 0.3677357 0.5889013 -0.46238488 0.8307811
-0.48206168 -0.8935018 0.6338693 0.22925429 -0.7798345 0.77664405 -0.7577946 0.8068037
0.12212794 -0.14249296 0.0892519 0.11527162 0.35232833 0.6048226 0.35736018 0.65632653
-0.54836166 -0.29088357 0.60936666 -0.55827326 0.4188233 0.560267 -0.5279232 -0.28492117
0.62996465 -0.38090548 0.5562605 -0.6308193 0.27508873 -0.16417097 0.0745114 0.045872785
-0.7325176 -0.5181258 -0.5085782 -0.5680049 0.34178495 0.43742463 -0.8357301 -0.23865566
-0.7770248 -0.16239262 0.55050635 0.5831905 -0.48093915 0.12587899 -0.2871934 0.59623545
-0.041507266 0.20779389 0.01203615 0.045734614 0.21150601 -0.2724938 0.23303132 -0.6621683
-0.5217747 -0.59815824 -0.12777877 -0.5477033 -0.09751358 0.7111331 -0.13116063 -0.23428653
0.35017675 -0.6631223 0.67680085 -0.51964736 -0.14629087 0.29515463 0.28504103 0.032116953
0.1932025 -0.5389223 0.49345413 -0.57240546 -0.3767895 -0.73343295 -0.0023597705 -0.89516836
-0.0022065167 0.7335652 -0.516539 -0.24371436 0.5450644 -0.7321673 0.81783247 -0.40582368
-0.18975596 0.3018439 0.25545284 -0.07370844 -0.20913601 -0.21123776 -0.08894255 -0.16573371
0.10908742 0.14265437 -0.24773483 0.6409023 -0.1918279 -0.6545478 0.26791558 0.08631508
-0.29428384 0.43485963 -0.5471668 0.13795847 0.08076007 -0.16090122 0.15410104 0.12308457
0.3337983 0.076759845 0.4204144 0.067563854 -0.4124063 -0.28840098 0.5004996 -0.015292275
0.44957617 0.07536609 -0.36060533 -0.32008824 0.27036318 -0.2368075 0.16057838 -0.46450445
00000000: 0097 2fbf 81a9 09bf 3b35 24bf 0b69 c1be
00000010: f287 3d3f 6072 943e 0dd7 45bf f275 afbe
00000020: 274f 3fbf ba23 913d 4a6e 523f 8dfa 303f
00000030: 7c75 eabe 639d 0c3f f156 d3be 3b2c 163f
00000040: 93a3 c23d d28e 663e 2834 eabd 3eac 2c3e
00000050: c90d 78bf 7c49 b73e 2461 1dbf f61d be3e
00000060: ba57 673f 80ca 1c3f fc37 5dbf fc71 153f
00000070: e9dd f7be 854e 9bbe e1e5 3d3f 4a98 713f
00000080: e12d 58bf 41bb 483f 8d84 04bf d8cc 183f
00000090: 2c5a c6be 2e71 b63d ff68 773a 0c47 8a3d
000000a0: 032d 67bb 73d4 68be 2439 cd3d 11e7 cfbe
000000b0: 9879 08be 9886 05be 909d a53d 5b6a a2be
000000c0: 3a98 a8bd e192 4d3e 9d28 88bb a5a7 11be
000000d0: 0f4b be3d f090 74bc 735a a93d bbb8 553c
000000e0: fc18 b2bd 0bfb 8dba 516b 28be b863 06be
000000f0: 2fc2 1f3f 6c05 213f f16c 263f 023a 143f
00000100: 2aee 09bf 5ede 24bf 1072 2a3f 6caf 2ebf
00000110: a586 383f b19d 4e3f acd3 36bf e461 cbbe
00000120: 4472 393f 215f 2dbf 76ad 1a3f 56a8 2abf
00000130: 9062 6e3e a153 19be ae36 673e 3bc0 82bd
00000140: e0bf aebe fe9b 533e f055 88be cc91 f23d
00000150: a944 153e a1f5 633e 9a50 99be f974 f03e
00000160: 6d9b 53be 70da 8ebe 9579 3a3e 2783 c13e
00000170: 7fac 88be b7dc d33e d58c 95be d427 4c3e
00000180: 9027 903d dd97 83be 09ef c5bc d18c aabe
00000190: c7a9 4cbe 2d37 d1be 5f4f 28be c044 f0be
000001a0: 9faf 723e 56cd 743e fc7f 70be 48b2 e93e
000001b0: 24d3 74be 72e2 c9be 0d96 6d3e 56d0 1a3e
000001c0: e276 81be 5164 883e ce15 cdbe dc87 993e
000001d0: 4ceb 8b3e 57f9 6fbe 8db9 acbd a6b1 dfbc
000001e0: d934 41bf 390a 3abe 09c4 14bf 7f97 d6be
000001f0: db47 bc3e 3cc2 163f b6bd ecbe 12ae 543f
00000200: cad0 f6be 89bc 64bf 4245 223f a3c1 6a3e
00000210: 3ca3 47bf 25d2 463f d4fe 41bf b08a 4e3f
00000220: 371e fa3d ade9 11be b3c9 b63d 8713 ec3d
00000230: 6164 b43e a7d5 1a3f eaf7 b63e 0405 283f
00000240: 6e61 0cbf b1ee 94be 74ff 1b3f ffea 0ebf
00000250: 0270 d63e a86d 0f3f fa25 07bf 30e1 91be
00000260: 5d45 213f 0b06 c3be 1767 0e3f 607d 21bf
00000270: 6ed8 8c3e 6f1c 28be 6f99 983d 1ae5 3b3d
00000280: 4686 3bbf e4a3 04bf 2e32 02bf c568 11bf
00000290: 70fe ae3e 1ff6 df3e 68f2 55bf 2662 74be
000002a0: 19eb 46bf 404a 26be fced 0c3f f94b 153f
000002b0: a83d f6be 6ce6 003e 030b 93be e3a2 183f
000002c0: 8603 2abd ecc7 543e 4633 453c 3854 3b3d
000002d0: 0895 583e 4f84 8bbe c39f 6e3e dd83 29bf
000002e0: 0793 05bf e620 19bf 70d8 02be 4936 0cbf
000002f0: 33b5 c7bd d20c 363f f94e 06be cfe8 6fbe
00000300: 5e4a b33e 62c2 29bf d242 2d3f 9c07 05bf
00000310: 46cd 15be 821e 973e e6f0 913e 118d 033d
00000320: e0d6 453e d0f6 09bf 05a6 fc3e 2a89 12bf
00000330: 8eea c0be 43c2 3bbf 61a6 1abb c129 65bf
00000340: 359b 10bb eeca 3b3f e63b 04bf 4290 79be
00000350: 5789 0b3f 516f 3bbf 785d 513f 1fc8 cfbe
00000360: 634f 42be 498b 9a3e b7ca 823e 73f4 96bd
00000370: c027 56be b64e 58be 8327 b6bd 19b6 29be
00000380: 3a69 df3d fd13 123e 33ae 7dbe 2c12 243f
00000390: 886e 44be 7290 27bf 3b2c 893e f6c5 b03d
000003a0: 5fac 96be eca5 de3e 2013 0cbf fc44 0d3e
000003b0: 8965 a53d 4ac3 24be aacc 1d3e c313 fc3d
000003c0: 9ce7 aa3e 4434 9d3d 8e40 d73e eb5e 8a3d
000003d0: eb26 d3be 4ba9 93be be20 003f 738c 7abc
000003e0: d92e e63e 8959 9a3d 43a1 b8be 9be2 a3be
000003f0: 0b6d 8a3e aa7d 72be a96e 243e 87d3 edbe

linear1.bias f4 [32]
0.057919227 -0.11147192 -0.24549055 0.093277104 -0.44966957 -0.09749587 0.43436265 0.37835824
0.12831059 0.22048564 0.07238659 0.060301237 0.13612036 -0.11802283 -0.12791823 -0.0056494055
0.35095835 0.15505016 0.15983915 0.16304724 0.17679581 0.1950778 0.23380937 0.35364053
-0.23022434 -0.12588204 0.042053003 0.10321971 0.41009393 0.0077691036 0.1825683 0.25406104
00000000: b63c 6d3d 644b e4bd e061 7bbe 1108 bf3d
00000010: 173b e6be eaab c7bd c864 de3e 2cb8 c13e
00000020: da63 033e fdc6 613e 6c3f 943d 6efe 763d
00000030: 2363 0b3e f4b5 f1bd fffc 02be a61e b9bb
00000040: d0b0 b33e 78c5 1e3e e0ac 233e dbf5 263e
00000050: f609 353e 7ac2 473e b96b 6f3e 5f10 b53e
00000060: eebf 6bbe 39e7 00be c53f 2c3d db64 d33d
00000070: d5f7 d13e f793 fe3b 2ff3 3a3e 4a14 823e

linear2.weight f4 [64, 32]
0.11552226 0.1868375 -0.071502626 -0.13315988 -0.03422661 0.124567926 -0.010747399 -0.0638709
0.19562523 -0.020827148 0.008300002 0.03460292 0.04910803 0.113095425 0.035520803 0.05954055
-0.23672067 0.11965493 -0.1142762 -0.07651157 -0.17394277 0.24761914 0.16570401 0.23942374
-0.100797065 -0.29690066 -0.20125541 0.058108933 0.105755724 -0.039558887 0.13172932 -0.027959201
0.08010868 0.22209352 0.07643036 0.025323909 -0.079524815 0.1131039 0.21982974 -0.021067819
0.0685651 -0.1370267 -0.08901396 -0.0371842 0.17512281 -0.12161849 0.07795126 0.10491297
0.12086748 -0.09639592 -0.0780559 -0.12621787 0.13062571 0.28102994 0.06492923 0.1748094
0.10613175 0.002097825 -0.057416644 -0.014508115 0.2223047 0.035583545 -0.041212875 0.045968603
-0.15198706 -0.22466856 0.1322168 0.08708595 0.03839988 0.071438484 -0.15119796 0.317953
-0.048946366 0.30671632 0.4090533 -0.08501954 -0.030778287 0.10923377 0.06380437 0.22052868
0.34550104 -0.05648231 0.057752408 0.019960666 0.1917988 -0.25503796 0.00057331665 -0.12248425
0.09989999 0.25335485 -0.022111764 0.30049303 0.026671864 0.35317352 0.06422661 0.029728191
0.07613613 0.047286272 -0.018570557 0.10264713 0.180826 0.053574402 -0.25044465 -0.03249276
0.11783739 0.21058379 0.015805086 0.014495352 0.040681463 0.019275168 0.15091188 0.05371642
0.04278368 0.13221377 0.025366634 -0.11158229 0.23659068 -0.02732492 0.1342147 0.00043366928
0.10052373 0.06336115 -0.10247308 0.21921574 0.07849939 -0.0038110414 0.20536502 -0.21311706
-0.27345258 0.21843281 0.110495314 0.03546808 0.09265301 0.24484213 -0.08248305 0.12109783
-0.21207061 -0.36025366 -0.38166937 0.20026343 0.2667386 0.19995359 -0.16093291 0.28743878
0.15074997 -0.0037463128 0.32562995 -0.11732312 2.537352e-05 -0.01866482 0.23656541 -0.11820573
-0.10780669 0.19813156 0.14277661 0.11600178 0.06577113 -0.0026376457 0.034254044 -0.15332583
0.18703532 0.33199993 -0.117868915 0.19325519 0.11075308 0.25071177 0.17822763 -0.037973113
-0.020993352 -0.09647517 -0.18371333 0.03152849 0.07352864 -0.0035239207 0.13231476 0.16675995
-0.16836025 0.13274054 0.113369524 0.16574028 -0.09366497 0.27986965 0.06653137 0.092885405
0.061077762 -0.1111606 -0.19400367 -0.12542279 0.24770646 -0.06629835 -0.09716698 0.12503228
-0.02774419 -0.33213106 -0.041864503 0.055268947 0.21002033 0.14592466 0.09467657 0.14087516
-0.059913848 0.34093088 0.17669487 -0.092969865 0.15473902 0.02113627 0.06258987 -0.109090626
0.35199612 0.106751464 0.1400531 0.19774568 0.26064795 -0.3729836 -0.13661776 -0.09467863
0.2251743 0.2844563 0.023298593 0.11724215 -0.048174437 0.1557048 0.18659367 -0.017150752
0.13848454 -0.3008599 0.05904206 0.11007851 0.27068022 -0.09617409 -0.05733374 0.19613694
0.1570678 0.044535868 0.13034794 -0.15602618 -0.11141711 0.22171979 0.13123435 0.07252003
0.09591336 -0.02174952 0.21805646 0.026939042 0.23568605 -0.1330152 0.1740843 -0.119609214
-0.063271426 0.30992103 0.13419643 0.16621187 -0.17274667 0.19801536 0.12814529 -0.027536834
00000000: ef96 ec3d 5452 3f3e f86f 92bd 105b 08be
00000010: 3431 0cbd 781d ff3d dc15 30bc bfce 82bd
00000020: fb51 483e b29d aabc bbfc 073c cbbb 0d3d
00000030: 8025 493d 939e e73d 437e 113d cbe0 733d
00000040: e766 72be a50d f53d a409 eabd 19b2 9cbd
00000050: 0e1e 32be df8f 7d3e 50ae 293e 7f2b 753e
00000060: b16e cebd 5d03 98be e615 4ebe a203 6e3d
00000070: 7596 d83d 8008 22bd 0de4 063e b20a e5bc
00000080: 0510 a43d 7c6c 633e 8587 9c3d 1674 cf3c
00000090: e8dd a2bd 04a3 e73d 0c1b 613e 6b96 acbc
000000a0: dc6b 8c3d ba50 0cbe f34c b6bd 764e 18bd
000000b0: 6553 333e 1d13 f9bd e9a4 9f3d 9cdc d63d
000000c0: 5f89 f73d 396b c5bd c6db 9fbd 423f 01be
000000d0: bfc2 053e 28e3 8f3e 9ef9 843d 3c01 333e
000000e0: 9a5b d93d aa7b 093b b72d 6bbd 72b3 6dbc
000000f0: d8a3 633e 0dc0 113d d5ce 28bd 9349 3c3d
00000100: 7fa2 1bbe 840f 66be d763 073e 1e5a b23d
00000110: 3149 1d3d 574e 923d a3d3 1abe bcca a23e
00000120: fc7b 48bd ec09 9d3e 6f6f d13e b91e aebd
00000130: bf22 fcbc f4b5 df3d deab 823d 45d2 613e
00000140: 83e5 b03e ff59 67bd ca8d 6c3d 8d84 a33c
00000150: e866 443e 5694 82be a14a 163a 06d9 fabd
00000160: 5e98 cc3d bab7 813e bb23 b5bc 39da 993e
00000170: f47e da3c 29d3 b43e 3e89 833d 8988 f33c
00000180: 42ed 9b3d 40af 413d 4821 98bc a938 d23d
00000190: 732a 393e d570 5b3d 483a 80be 2117 05bd
000001a0: bb54 f13d 47a3 573e ab79 813c ea7d 6d3c
000001b0: 9ba1 263d f5e6 9d3c a588 1a3e c005 5c3d
000001c0: f13d 2f3d 0c63 073e b0cd cf3c 4185 e4bd
000001d0: d444 723e 83d8 dfbc 946f 093e 1b5e e339
000001e0: 63df cd3d 7ec3 813d 68dd d1bd 177a 603e
000001f0: 4ac4 a03d aac2 79bb 354b 523e 5c3b 5abe
00000200: fa01 8cbe daac 5f3e 5e4b e23d fa46 113d
00000210: dcc0 bd3d e5b7 7a3e e0ec a8bd 2402 f83d
00000220: 0a29 59be 2b73 b8be 2b6a c3be db11 4d3e
00000230: f691 883e a2c0 4c3e 99cb 24be 2d2b 933e
00000240: 335e 1a3e b384 75bb f8b8 a63e 1b47 f0bd
00000250: 38d9 d437 f7e6 98bc 343e 723e d915 f2bd
00000260: c1c9 dcbd 00e3 4a3e 0834 123e 5792 ed3d
00000270: 04b3 863d 5adc 2cbb f84d 0c3d 7201 1dbe
00000280: 3086 3f3e e5fb a93e 4265 f1bd b0e4 453e
00000290: 83d2 e23d 4b5d 803e 4e81 363e b289 1bbd
000002a0: 40fa abbc c694 c5bd 591f 3cbe 0524 013d
000002b0: 2f96 963d 94f1 66bb 857d 073e 1fc3 2a3e
000002c0: a166 2cbe 23ed 073e 482e e83d d2b7 293e
000002d0: 6bd3 bfbd 134b 8f3e 9941 883d b43a be3d
000002e0: ad2c 7a3d 2ba8 e3bd e6a8 46be d56e 00be
000002f0: c3a6 7d3e 6ec7 87bd 7bff c6bd 7608 003e
00000300: c947 e3bc 150d aabe 1d7a 2bbd b161 623d
00000310: 920f 573e 466d 153e cae5 c13d 9441 103e
00000320: 3968 75bd 7e8e ae3e 80ef 343e fc66 bebd
00000330: e873 1e3e f925 ad3c 1e2f 803d e86a dfbd
00000340: d638 b43e 83a0 da3d 146a 0f3e d87d 4a3e
00000350: a673 853e b5f7 bebe 87e5 0bbe dfe6 c1bd
00000360: 1794 663e 42a4 913e b1dc be3c a71c f03d
00000370: 8f52 45bd 1471 1f3e 6912 3f3e bc7f 8cbc
00000380: e4ce 0d3e 4f0a 9abe 16d6 713d d870 e13d
00000390: 9996 8a3e ecf6 c4bd c9d6 6abd 1fd8 483e
000003a0: 62d6 203e 3e6b 363d ee79 053e 54c5 1fbe
000003b0: a72e e4bd 830a 633e 4c62 063e 6285 943d
000003c0: 396e c43d 0d2c b2bc 314a 5f3e 44af dc3c
000003d0: af57 713e 2335 08be 2843 323e adf5 f4bd
000003e0: 7394 81bd f8ad 9e3e ca6a 093e 7233 2a3e
000003f0: 81e4 30be 8ac4 4a3e 8538 033e ed94 e1bc

linear2.bias f4 [64]
-0.18689314 -0.16761936 -0.005019574 0.072836936 -0.1929211 0.2147858 -0.15070407 0.034593258
-0.055717904 -0.16880415 0.08853503 -0.051913 -0.07484078 0.2607501 0.0076509956 -0.033119448
-0.012612563 0.0048376485 0.03203846 -0.16317031 -0.07125569 -0.18753982 -0.016651874 0.16907844
-0.10153427 0.14960557 -0.064466365 -0.047898766 -0.035815075 -0.0538647 0.09785706 -0.04134209
0.021207904 0.039142545 0.12655878 0.038486008 0.010623135 0.08752466 0.07160442 0.12492179
0.16517456 0.08479324 -0.019348834 0.034078225 0.018741416 -0.161546 0.011348456 0.10179865
0.06416433 0.034656618 -0.07941444 0.0890037 0.19605252 0.054029148 -0.05820356 0.12506665
-0.008846168 0.09054432 0.1326541 -0.049125377 -0.12634009 0.18019034 0.07602237 -0.12030965
00000000: ea60 3fbe 69a4 2bbe 3d7b a4bb 882b 953d
00000010: 1c8d 45be cff0 5b3e 2b52 1abe a9b1 0d3d
00000020: 7538 64bd ffda 2cbe db51 b53d baa2 54bd
00000030: 1f46 99bd 0981 853e 34b5 fa3b 42a8 07bd
00000040: eca4 4ebc 2385 9e3b c33a 033d 1e16 27be
00000050: 81ee 91bd 700a 40be 8369 88bc e622 2d3e
00000060: 33f1 cfbd 3432 193e f106 84bd 7f31 44bd
00000070: d4b2 12bd 3ba1 5cbd 4869 c83d 5356 29bd
00000080: 33bc ad3c ef53 203d a098 013e 81a3 1d3d
00000090: a80c 2e3c 2140 b33d 57a5 923d ffd6 ff3d
000000a0: 8523 293e 14a8 ad3d 7281 9ebc 9c95 0b3d
000000b0: 9987 993c 516c 25be e0ee 393c d07b d03d
000000c0: 9768 833d 19f4 0d3d 0aa4 a2bd 9247 b63d
000000d0: fec1 483e ab4d 5d3d db66 6ebd 7911 003e
000000e0: 85ef 10bc 4d6f b93d 7ad6 073e b137 49bd
000000f0: 4c5f 01be d183 383e 9eb1 9b3d e864 f6bd

linear3.weight f4 [2, 64]
0.1719474 0.05656399 -0.32206848 -0.05198108 0.29905108 0.26962292 -0.21771231 -0.15171313
-0.052970417 -0.1368073 -0.14011876 0.15799458 -0.10281761 0.23526315 0.2033856 0.2014898
-0.18927397 0.15740119 -0.11836783 0.051039074 -0.20149592 0.2245561 -0.093328714 0.13838896
-0.12531395 -0.14077398 -0.1874266 -0.08410782 0.111962594 0.1165302 0.18600963 0.18427905
0.060756475 0.10117516 0.26504502 -0.207263 0.11068159 -0.08801585 -0.2188571 0.13551635
0.12593079 -0.06066438 0.17153904 -0.116349965 0.049290672 0.12870613 -0.2012425 0.22563711
0.2315464 0.24291967 -0.10344094 0.2634255 -0.18514721 0.13547441 -0.084622234 0.06460691
0.043619145 -0.099138975 0.21443981 -0.14774792 -0.094143875 0.16596493 -0.14955068 -0.1027727
-0.088135205 0.12537037 0.0057621924 -0.0053879577 0.065192044 -0.046961684 0.08401804 -0.04111895
0.020666705 -0.039333295 -0.010300419 0.040049616 0.020767178 -0.009429458 0.080522686 -0.1158323
0.06953606 -0.03912776 -0.034643225 0.2086458 -0.013215729 -0.016615838 0.10326912 -0.05894246
-0.052523676 -0.010921299 0.0069738897 0.12876587 -0.037521698 -0.040469535 0.11434604 0.008055289
-0.07617842 0.031694263 0.03188633 -0.06121318 -0.08173659 0.0050127213 -0.059398636 -0.0026555401
-0.0411344 0.045716584 0.00035241406 0.003542394 -0.075736895 -0.009238204 -0.01965376 -0.085782446
0.002162525 0.01047825 -0.060209323 -0.027587371 0.023105703 0.049434073 -0.041676793 -0.07145671
-0.30908692 -0.0094191395 0.01111315 0.0010455073 -0.010890826 0.015248232 -0.03317831 0.026509743
00000000: fb12 303e a4af 673d 29e6 a4be 1dea 54bd
00000010: 391d 993e 040c 8a3e faef 5ebe b05a 1bbe
00000020: 82f7 58bd 3617 0cbe 4b7b 0fbe 55c9 213e
00000030: 0a92 d2bd d3e8 703e 5144 503e 5853 4e3e
00000040: 09d1 41be c72d 213e d56a f2bd 590e 513d
00000050: f254 4ebe 09f2 653e 2023 bfbd d6b5 0d3e
00000060: 4d52 00be 0e27 10be c2ec 3fbe b940 acbd
00000070: a54c e53d 63a7 ee3d 4f79 3e3e a6b3 3c3e
00000080: c8db 783d ec34 cf3d fbb3 873e c03c 54be
00000090: 08ad e23d a741 b4bd 131c 60be ccc4 0a3e
000000a0: 00f4 003e 377b 78bd eea7 2f3e e448 eebd
000000b0: 04e5 493d 8acb 033e 8412 4ebe 6a0d 673e
000000c0: 801a 6d3e efbf 783e d8d8 d3bd b5df 863e
000000d0: 3b97 3dbe ceb9 0a3e 6c4e adbd a150 843d
000000e0: fda9 323d 6009 cbbd 1c96 5b3e 3b4b 17be
000000f0: 81ce c0bd b6f2 293e d023 19be 7e7a d2bd
00000100: 3b80 b4bd 1761 003e c6d0 bc3b 778d b0bb
00000110: 6883 853d e55a 40bd a611 ac3d 586c 28bd
00000120: 394d a93c f31b 21bd 17c3 28bc 110b 243d
00000130: ee1f aa3c 037e 1abc 14e9 a43d 7c39 edbd
00000140: ec68 8e3d 6e44 20bd 0ee6 0dbd 3fa7 553e
00000150: c986 58bc f01d 88bc c37e d33d a66d 71bd
00000160: 1123 57bd 40ef 32bc 3a85 e43b 33db 033e
00000170: 5ab0 19bd 62c3 25bd 422e ea3d 55fa 033c
00000180: 6e03 9cbd d8d1 013d 3e9b 023d acba 7abd
00000190: 8365 a7bd c141 a43b fc4b 73bd 9208 2ebb
000001a0: 8b7c 28bd 5041 3b3d 37c4 b839 8227 683b
000001b0: f21b 9bbd d65b 17bc ec00 a1bc b5ae afbd
000001c0: 26b9 0d3b f7ac 2b3c 0d9e 76bd e9fe e1bc
000001d0: 2c48 bd3c 627b 4a3d 49b5 2abd e557 92bd
000001e0: a440 9ebe bc52 1abc ee13 363c 6709 893a
000001f0: 6f6f 32bc b8d3 793c fbe5 07bd f62a d93c

linear3.bias f4 [2]
-0.053763308 0.0027370395
00000000: ea36 5cbd e75f 333b
