model/generator_parameters.pth (torch, 7626 bytes, 6 tensors)

linear1.weight f4 [16, 36]
000000 25 0d d0 bc de 35 96 3c 06 2b 61 3d 99 be 5a 3e
       -0.025396893 0.018336233 0.05497267 0.2136177
000010 98 68 33 bd 6e 5d bf bd 6d a0 1c be de 75 35 bb
       -0.04380092 -0.09343992 -0.15295573 -0.0027688663
000020 c8 93 d0 3c be 49 04 be 22 f8 dc bc 94 fc 22 be
       0.025461093 -0.12918755 -0.026973788 -0.15916663
000030 75 27 91 3d ff 34 ee bd 34 24 2a 3d 1a d4 84 3d
       0.07087604 -0.11631202 0.041538432 0.06485768
000040 ad d7 09 be 1c b2 d7 3d e6 bc aa bc e6 e6 c4 3c
       -0.1346118 0.105320185 -0.020842027 0.024035882
000050 e8 45 ac 3b ab 10 71 bd 4e 7f ca 3d ed f1 0a be
       0.005257357 -0.058853786 0.09887563 -0.1356885
000060 2e 56 1e 3e e0 c3 0d bd 8e df 69 3d ce 9f fd 3c
       0.15462562 -0.03461063 0.057097964 0.03095999
000070 6d c0 33 bd f6 09 74 bd 3b b7 f1 3d 02 7f f6 3c
       -0.043884683 -0.059579812 0.118025266 0.030089859
000080 08 02 a1 3d c1 11 1a be f9 7b e0 3e 31 c9 5e 3e
       0.078617156 -0.15045835 0.43844584 0.21756436
000090 82 18 0b 3f 0b 36 18 3f 29 14 5a 3f 72 b1 45 bf
       0.5433427 0.59457463 0.8518701 -0.77223885
0000a0 1c 89 68 3f 62 68 71 bc 43 08 44 3f aa 58 1c 3f
       0.9083421 -0.014734359 0.76575106 0.6107279
0000b0 79 35 33 bf 16 6e a8 3e 0d 22 c3 be 19 c3 7c 3f
       -0.7000347 0.3289649 -0.38111916 0.98735195
0000c0 fe 58 ae 3e 86 36 23 3f a1 5e ba be 3d 4d 3f bf
       0.3405227 0.6375507 -0.3640032 -0.7472723
0000d0 0a e7 85 be 73 b4 2b 3f fb f0 2c bf 7b 12 0e bf
       -0.2615283 0.6707222 -0.67555207 -0.5549695
0000e0 e4 9b 3e bf eb 29 20 3f af 72 14 bf 7e 77 4d bf
       -0.7445662 0.6256396 -0.57987493 -0.80260456
0000f0 cb e9 35 bf 22 f5 d8 3e 07 f1 2e bf 6e 28 74 3f
       -0.71059865 0.42374521 -0.6833653 0.9537419
000100 4a 96 31 bf 08 75 08 3f f0 fd 48 bf 47 c0 7f bf
       -0.6936995 0.53303576 -0.7851248 -0.99902767
000110 45 f1 0e 3d 57 2c 0a bd df 4c 2c 3f 8d 28 14 3d
       0.03489806 -0.033733692 0.67304796 0.036171485
000120 fa bd 1c 3d 0d d3 8e 3c 2b 8f 23 bd 46 5d 62 bd
       0.038267113 0.017434621 -0.039931457 -0.055264734
000130 fb fb 21 3e c2 90 86 3d a4 c8 db 3d 07 b0 1f 3d
       0.15818779 0.06570579 0.107316285 0.038986232
000140 8a a8 03 bd d0 28 34 bd c4 b1 85 bd 11 36 51 3d
       -0.032143153 -0.043984234 -0.06528047 0.051076952
000150 b1 af 9a bc b9 da a2 3d 84 19 73 bd 8c 0c c3 bd
       -0.018882604 0.07951874 -0.059350505 -0.095238775
000160 4c f6 3e bd 29 cb c5 3d 21 53 23 be 15 a8 11 be
       -0.046621606 0.0965789 -0.1594968 -0.14224274
000170 56 ed d8 bd 19 34 a0 3c 5a cd 47 bd ef aa aa bd
       -0.10592143 0.019556092 -0.048779823 -0.08333384
000180 d2 b2 ce bd 91 e9 02 3d 31 2c 1e 3d 1c 47 62 3d
       -0.10092701 0.031961028 0.038616363 0.055243596
000190 07 16 97 bd 83 9f 89 bd ee a7 9a bc c2 f0 cc bd
       -0.07377248 -0.067198776 -0.018878903 -0.100068584
0001a0 1b 6b 7d bd 18 02 8c be c5 97 39 be bb e2 0c 3e
       -0.06186972 -0.27345347 -0.18124302 0.13758366
0001b0 0d 8c 91 3d 10 86 e3 3d f2 50 b6 bd 3e d8 ae 3c
       0.07106791 0.11109555 -0.08902158 0.021343347
0001c0 29 3c 23 be 02 6b 16 bd 2f 32 4a bd 9f cd f1 bd
       -0.15940918 -0.036723144 -0.049364265 -0.11806797
0001d0 6e 4f e8 bb 4d 1f 34 be 24 3d 0f bc e9 a1 21 bc
       -0.007089547 -0.17590065 -0.008742604 -0.009865263
0001e0 6a 46 de bd 0f 74 00 3e 7e 8e 3a be bb bb 24 3c
       -0.10853274 0.12544273 -0.18218419 0.010054524
0001f0 b1 d6 da bd ef a6 86 bd 81 ee 13 bd 44 03 01 3e
       -0.106854804 -0.06574809 -0.036116127 0.12598902
000200 d6 c0 46 3d e0 5e 3b bd 2e e5 be bd 70 d5 3b 3d
       0.048523746 -0.045744777 -0.09321056 0.045857847
000210 f2 53 84 bc ee a5 84 bc 17 50 c7 3d 6a ad 69 bd
       -0.01615331 -0.016192403 0.09732073 -0.057050146
000220 0c ee 60 3e 92 a3 56 bb 3b 80 7d bc 1d fc 20 3d
       0.21965808 -0.0032751304 -0.015472467 0.039302934
000230 c4 2a f0 3d 73 32 7d bc 48 46 6d 3e d4 88 8a 3e
       0.11726907 -0.015453923 0.23171341 0.27057517
000240 e7 36 80 3c ce 0d f4 3c 0b b8 c1 3c 32 cc 88 bc
       0.01565118 0.029791739 0.023647329 -0.01669893
000250 f7 27 95 3c 29 98 32 3b db 50 09 3d 9b 96 7c 3c
       0.018207533 0.002725134 0.033524375 0.0154167665
000260 70 9d d8 bc 23 05 62 3b e4 c0 0f bc f5 12 f7 3c
       -0.02644226 0.0034487925 -0.008774016 0.030160407
000270 c7 cd 8c 3b af b6 be 3c 02 66 93 bc 5a de b8 bc
       0.0042969915 0.02328047 -0.017992977 -0.022566963
000280 a4 3b 24 bc bd ea 84 3c 14 17 33 bc 08 ca 2e bc
       -0.010023985 0.016225213 -0.010930795 -0.010668285
000290 7a 6b 6d bc 37 5f 56 3c 47 5c f5 bc fc 9d 77 bc
       -0.014490956 0.013084224 -0.029951228 -0.01511335
0002a0 0b 88 df bc 04 3c 76 3c 7c a5 6f bc 41 76 f6 3c
       -0.02728655 0.015028957 -0.014626857 0.030085685
0002b0 85 4e f4 3a 8a 33 99 3c 86 91 b6 bc bb fc 9c bc
       0.0018639123 0.018701334 -0.022286188 -0.01916348
0002c0 f3 c7 5d 3d db d6 29 3c 07 a3 60 3e f9 42 1f bb
       0.054145765 0.010366167 0.2193719 -0.0024301393
0002d0 52 b4 30 3d 1f 82 a3 3c cf 78 99 3d 03 ff 2e bc
       0.043140717 0.019959508 0.074937455 -0.010680917
0002e0 05 f0 f0 bc 24 47 f0 bc 3b e2 80 3d 3b 79 f2 bb
       -0.029411325 -0.029330797 0.0629315 -0.0073997057
0002f0 12 02 5f bd 57 33 99 3a 1d 45 01 bc 2d 12 b4 3c
       -0.054445334 0.0011688274 -0.007890013 0.021981323
000300 b0 2e 44 3d 49 1b 4e bb dc 9e a7 bc 09 65 80 3c
       0.047896087 -0.0031449369 -0.020461492 0.015673177
000310 ef e6 a6 bc 30 d5 06 bd 71 27 3b bb 2d 96 cb 3b
       -0.02037379 -0.032918155 -0.0028557444 0.0062129707
000320 62 dd 92 3b 75 76 1a 3d c0 0d 82 bd d3 a6 f8 bc
       0.0044819573 0.037710626 -0.06350279 -0.030352985
000330 fe 37 8e 3c 28 43 c8 bb 65 ea 7b 3c 46 18 be 3b
       0.017360684 -0.0061115213 0.015375708 0.0058012335
000340 0e c3 e4 3c c7 05 4c 3d 8f c3 07 bd 23 53 48 bd
       0.02792504 0.049810197 -0.033145484 -0.04890741
000350 84 88 58 ba b4 2b 2c bc 19 36 6b be 9c 16 a7 3d
       -0.00082600885 -0.0105084665 -0.22969855 0.08158609
000360 fc ca 61 be 8c 76 5b be 52 25 25 be e1 73 1a 3e
       -0.22050089 -0.21431941 -0.16127518 0.15083267
000370 f9 e7 87 be 67 ca ce bd f9 f3 a5 be 44 e3 a3 bd
       -0.2654417 -0.10097199 -0.324127 -0.08002332
000380 f7 5f 78 3e 25 87 e8 3c 47 14 f4 3d 5f ef 51 be
       0.24255358 0.028384754 0.1191793 -0.20501469
000390 86 df 5f bd 22 66 30 be 74 0c b4 3d c2 9f df 3d
       -0.054656528 -0.1722646 0.08791438 0.10919143
0003a0 2a d8 58 3d 41 e7 52 be 35 e8 cb 3d ae e4 7e 3e
       0.052940525 -0.20596029 0.09956399 0.24891922
0003b0 f8 fb b4 3d 76 01 fb bd b3 03 8c 3e 40 bf 07 3e
       0.08837122 -0.12256138 0.27346572 0.1325655
0003c0 9c 58 4c 3e 42 0e 43 be d6 1e fa 3d 3b 82 5d be
       0.19955677 -0.19048408 0.12212913 -0.2163171
0003d0 0b cc 07 3e a8 7d 08 bc 70 6e 53 3e 57 59 81 3e
       0.1326143 -0.00833074 0.20647597 0.25263473
0003e0 57 fc e4 3c c3 26 4b be 49 52 f4 be d3 f0 61 3e
       0.027952356 -0.19839005 -0.4771903 0.22064523
0003f0 51 d4 03 be ca 77 15 bd 13 f0 ba bc a9 ad 8a 3d
       -0.12873961 -0.036491193 -0.022819554 0.06771404

linear1.bias f4 [16]
000000 86 0e 1b bf 72 69 56 3f bb 85 fb 3e fe 23 80 bd
       -0.60569036 0.83754647 0.49125466 -0.06256865
000010 ab f9 86 3f 20 1a 66 3f 9b a4 d2 bf 71 06 f1 be
       1.0544943 0.89883614 -1.6456484 -0.47075227
000020 56 15 02 40 53 32 f8 3e 63 20 1c be 69 a4 a8 be
       2.0325522 0.48475894 -0.1524673 -0.32937935
000030 0f b2 10 40 67 16 fb bf 13 97 31 3f 4e 15 51 be
       2.2608678 -1.9616212 0.69371146 -0.20418283

linear2.weight f4 [32, 16]
000000 45 e6 74 3c 5d a0 0a 3f 7a 0b 73 3e 51 78 0c 3e
       0.014947479 0.54150945 0.23734847 0.13717772
000010 9c 78 2c 3d e5 27 d2 be 72 20 ce bd 8d e1 14 3d
       0.04210721 -0.41046062 -0.10064782 0.036347914
000020 26 dc b0 bd 3c d3 82 be e3 97 9d 3e 7e 81 b6 3e
       -0.0863574 -0.25551784 0.30779943 0.3564567
000030 e9 b6 d1 bd 99 05 dc 3e a5 0e 55 be fd 69 b4 3d
       -0.102399655 0.4297302 -0.20806368 0.08809278
000040 c1 14 57 3e 2e ef 2a 3e d1 9e 8e 3d 83 dc 73 3e
       0.2100401 0.16692802 0.069638856 0.23814587
000050 86 be 86 be 51 9f 26 3e 71 52 33 be 36 ca 4c be
       -0.26317233 0.16271712 -0.17511918 -0.19999012
000060 d9 24 ec be 86 fe cc bc d6 9e 2b 3d 25 15 92 3e
       -0.46121863 -0.02502371 0.041899525 0.28531757
000070 2a 52 d0 bd 12 56 ec 3d 04 77 2d 3e eb 29 18 bd
       -0.101719216 0.11539854 0.16939932 -0.03714935
000080 28 4d 32 3e ca 01 c7 be ab f0 06 3e 3f c7 ca bd
       0.17412245 -0.38868552 0.13177745 -0.099012844
000090 ce cf 3c be 2b 9a fc 3e 9d bf df 3b f5 45 dd bd
       -0.18438646 0.4933637 0.006828262 -0.10804359
0000a0 c9 96 ab 3e 17 a0 7a 3e 63 9e a0 3e 6e 46 98 3d
       0.33513477 0.24475132 0.3137084 0.074353084
0000b0 3c ed b0 3e c2 9a 4a be 23 39 40 3f 4a d5 54 be
       0.34555995 -0.19785598 0.75087184 -0.20784488
0000c0 6b 47 2a 3d 10 f5 b8 be b0 3f a4 3e e6 77 fb bd
       0.041572016 -0.36124468 0.3207984 -0.12278728
0000d0 ed f6 81 be 19 97 c2 3d d1 e0 35 3e a5 94 a1 3d
       -0.25383702 0.09501476 0.17761542 0.0788968
0000e0 d9 49 db 3e 0f 47 a5 3d 97 b8 ec bd 59 47 36 bb
       0.4282978 0.08070194 -0.11558645 -0.0027813523
0000f0 7c 08 39 3b dc 71 60 3e 73 0b 9c 3e db 16 87 3e
       0.0028233817 0.21918434 0.30477485 0.26384625
000100 fa 17 8e 3e a1 77 ad 3d fb ef 14 be f9 8d f1 bd
       0.27752668 0.08470083 -0.1454467 -0.11794657
000110 35 e2 ef 3d de 9b 09 be 55 79 fb bc c6 41 9c 3e
       0.117130674 -0.13438365 -0.030697504 0.3051893
000120 85 be 8d bc 0d af b9 3d d6 87 49 3e 47 26 f1 3d
       -0.01730276 0.090665914 0.19680724 0.11774879
000130 f5 f2 85 3e 12 6b 0b be e5 5a 72 be dc c4 da 3d
       0.26161924 -0.13615063 -0.23667486 0.10682079
000140 e0 1c 43 bd fe bd ef be 64 06 66 3e fb e4 4f 3e
       -0.04763496 -0.4682464 0.22463375 0.20302193
000150 37 38 07 be f9 31 5b 3e 73 7a e5 3d 8e c4 75 3e
       -0.13205038 0.21405782 0.11204996 0.24000761
000160 7f d4 72 bd 9c e5 ad 3e 48 f4 3e 3e 0b 2a 0a 3e
       -0.059284683 0.3396424 0.18647873 0.134926
000170 88 82 9b 3e 16 45 01 be d5 b2 e6 3e 76 6f b7 bc
       0.30373025 -0.1262401 0.45058313 -0.022392016
000180 c7 1c 9c 3e eb dc 15 3d c6 fe 17 be 13 e7 68 3e
       0.30490705 0.036587637 -0.14843282 0.22744398
000190 b0 d9 a9 3e b8 d4 8d be b8 70 8d 3c 06 2b 82 3e
       0.33173895 -0.27701354 0.017265663 0.2542345
0001a0 5c 79 84 3e 68 30 cf 3d 46 ee e3 3d 56 a1 2a be
       0.2587384 0.10116655 0.111294314 -0.16663107
0001b0 f2 6f ba 3d 47 47 39 bd 3b 96 8d be 74 d4 d6 bd
       0.09103383 -0.04523399 -0.2765368 -0.10489741
0001c0 00 5b 5a 3e 6b 97 b4 be ed 5c 3c 3e f0 ef 3d 3e
       0.21323776 -0.35271773 0.18394823 0.1854856
0001d0 dc 97 b9 3e e7 6e e0 bd c9 c5 78 3e e4 a9 a3 3e
       0.36248672 -0.10958653 0.24294199 0.31965554
0001e0 2e cc c6 3d 52 37 31 3d 7e d3 0d 3e 65 56 f5 bd
       0.09706913 0.04326565 0.13850209 -0.11979369
0001f0 d6 62 c4 3e f8 04 82 bd 9c 2a a9 be bb be 64 bd
       0.38356656 -0.06348604 -0.3304032 -0.055845957
000200 10 89 ca bd 1b 35 a1 3d 9e 22 f1 3e 49 22 ac 3e
       -0.09889424 0.07871457 0.47096723 0.33619907
000210 7a bf b8 be 36 a1 f6 bd 33 01 49 3e ac 5a 08 bd
       -0.36083585 -0.12042467 0.19629364 -0.033289596
000220 2a e0 40 be a8 fb d6 bc 2a 04 e6 bd 0d ea 7d bd
       -0.18835512 -0.026243046 -0.11231263 -0.061990786
000230 c5 87 03 be 01 b8 c8 3e 93 7b 8c 3e 77 76 ae bc
       -0.1284476 0.39202884 0.2743803 -0.021296723
000240 f1 2c 43 3e 0e c4 9e 3e 0c 32 95 3e d4 dd f2 3d
       0.19060113 0.31008953 0.29139745 0.118587166
000250 4f bf 66 3e 1b 33 8e be 39 6c 75 bd 15 24 4d 3e
       0.22533916 -0.27773365 -0.059917662 0.20033295
000260 74 49 ac be 17 2c 80 be 50 c2 0e 3d 07 d3 9e 3e
       -0.3364979 -0.25033638 0.03485328 0.31020376
000270 00 03 76 be db 60 bd 3e f2 a1 f2 be e9 0f b8 bd
       -0.24024582 0.36987957 -0.4738918 -0.089874096
000280 23 aa 0e 3e dd 69 28 3e 9e 4b d0 3d 80 cd 8a be
       0.1393209 0.16446634 0.10170673 -0.2710991
000290 76 3b 89 be d7 10 18 3f aa af 0d 3e e7 4a 08 3d
       -0.26803178 0.59400696 0.13836542 0.033274557
0002a0 b7 89 1c 3d c2 ab a2 3e 47 62 30 be 4d 2b 48 3e
       0.038217273 0.31771666 -0.1722499 0.19547768
0002b0 3f ba 82 be 01 01 1e 3b 38 44 a5 3e a1 57 dc bb
       -0.2553272 0.0024109485 0.3227861 -0.0067243134
0002c0 25 0e ab 3d 7c af 4f be de 87 ca bd 0b ad ba 3e
       0.08352307 -0.20281786 -0.09889196 0.36460146
0002d0 ff 10 61 be 5f d6 a5 be 18 3e 0f 3e 88 0e 36 3e
       -0.2197914 -0.32390115 0.1398853 0.1777898
0002e0 b3 49 85 be 7a f2 a6 be e9 e6 d4 bc 61 fe 20 3c
       -0.2603279 -0.3260687 -0.025989013 0.009826274
0002f0 12 d7 a8 be 11 df 56 3e 00 ca 27 bf 42 99 15 3d
       -0.32976586 0.2098353 -0.655426 0.03652311
000300 19 bf 9f bc be 73 6a be a0 8d fe bc 43 e9 bb bd
       -0.019500302 -0.22895715 -0.031073391 -0.091753505
000310 25 2e 20 be 82 a7 db 3e cb b5 6e 3e be b7 00 be
       -0.15642603 0.42901236 0.23311536 -0.12570092
000320 d0 02 2e 3e d8 4a f2 3e 34 ca 78 3e 86 db 6b 3d
       0.1699326 0.47322726 0.24295884 0.0575824
000330 8f 11 33 bd 01 59 fc 3b 64 6b 31 3f 87 5a 7c 3e
       -0.043717917 0.00770104 0.6930449 0.24643908
000340 32 11 54 3e a7 9e b7 be eb 97 91 bd 36 85 6d 3d
       0.20709684 -0.3586323 -0.07109054 0.057988368
000350 cc 95 3c bc 2a 3a 0c 3e 2f b4 c5 3d 62 9f 1a 3e
       -0.011510324 0.13694063 0.09653508 0.15099862
000360 34 89 df 3c f0 a8 93 3e 04 a7 c2 3d 54 0a 0d be
       0.027287103 0.28839827 0.09504512 -0.13773471
000370 c6 0d 14 3e 46 1c 62 be a2 4f a8 3e 59 2f 2c bc
       0.14458379 -0.22081098 0.32873255 -0.010509335
000380 91 ed bc 3d 7c 06 19 be fc 42 1d 3e f2 29 99 bd
       0.09225 -0.1494388 0.15357584 -0.074787036
000390 1a ff bf 3e 21 59 6c bd dc be 92 39 65 4a 45 bd
       0.37499315 -0.057702187 0.0002798949 -0.04816665
0003a0 e7 e3 58 3e cf a0 6c be a8 f0 73 3d 38 51 76 3e
       0.21180688 -0.23108219 0.05955568 0.2405442
0003b0 a7 dd ad 3e 7e 71 76 be 9c 2a cd bc 20 70 1e 3d
       0.3395817 -0.24066731 -0.025044732 0.03868115
0003c0 67 be 5d bd 43 84 66 be 63 54 42 3e 8e 91 45 be
       -0.05413666 -0.22511391 0.18977503 -0.19293806
0003d0 45 c4 42 ba d8 49 8b 3e e1 43 bf 3e 32 db 4b be
       -0.0007429759 0.27204776 0.37356475 -0.19907835
0003e0 b9 e6 f5 bd 2a 5c 2f 3d d3 09 85 3e 0f 8e b7 3d
       -0.120068975 0.042812504 0.25984058 0.089626424
0003f0 a2 16 c3 3d dd 62 8a bc 99 e4 1f 3f 76 ba 0f be
       0.09525801 -0.016892845 0.6245819 -0.14035973

linear2.bias f4 [32]
000000 a6 6c 1a be cb ff 8b bc 6a 18 a7 3e c6 c3 a5 3e
       -0.15080509 -0.017089745 0.32635814 0.32375926
000010 7e 57 84 be f8 82 9c 3e fc 61 ef bd 2f 21 46 be
       -0.25848 0.3056867 -0.11688611 -0.19348596
000020 90 3a 5a 3e 0c 24 79 3d 3b d8 93 3d 62 2a d7 bf
       0.21311402 0.060825393 0.07218977 -1.6809809
000030 20 8f e9 3e 7c 0e 64 3e 92 d8 98 3e d2 d7 0e 3f
       0.45617008 0.2227115 0.2985273 0.55798066
000040 16 ad 74 bf 6d d0 cd bb dc 22 90 be 71 b7 44 3d
       -0.9557661 -0.00628095 -0.28151596 0.048026506
000050 8e f6 8a be c4 b6 2c 3e 56 6e 5c be d3 5f 96 be
       -0.2714123 0.16866595 -0.21526465 -0.29369983
000060 5f ac 70 be 27 f7 fc 3d 3c 38 c4 3e 56 b4 b7 bf
       -0.23503254 0.12351828 0.38324153 -1.4351909
000070 9c 74 b2 3a 60 ff 21 c0 70 34 b9 be 30 51 20 be
       0.0013615075 -2.5312119 -0.3617282 -0.1565597

linear3.weight f4 [2, 32]
000000 fb ae dd be 3d a1 77 be be c6 05 3f 38 4a df 3e
       -0.43297562 -0.24182601 0.5225638 0.43611312
000010 22 be 0f 3e 64 3e 9d 3e 2a 81 e2 3d a3 2e 04 3e
       0.14037374 0.30711663 0.11059792 0.12908415
000020 70 e8 b9 be 2b 72 10 bf b2 20 de 3d 16 a9 a5 bf
       -0.36310148 -0.56424206 0.1084608 -1.2942226
000030 25 dc c1 3e dc ab e3 3e 53 75 b5 3e a7 71 a1 3e
       0.3786327 0.44467056 0.35441074 0.31532022
000040 e5 d2 c3 bd e0 de bf be 5e 80 83 bd 6d bc 6a 3d
       -0.09561709 -0.37474728 -0.064209685 0.057308603
000050 c5 97 95 bd 2f cf a2 be 6f 86 03 bf 4c aa 94 be
       -0.07304338 -0.31798694 -0.51377004 -0.29036176
000060 9b df 04 3f 73 8d 6e be 1e a6 0d 3f 10 83 63 3e
       0.51903695 -0.23296146 0.553316 0.22217965
000070 00 78 b2 be 23 72 4a be 7b 68 96 be 01 fe 88 3e
       -0.34857178 -0.19770102 -0.29376587 0.2675629
000080 2d 7f 83 be 44 fd 9a 3e bd 8b b4 3e be e5 66 3e
       -0.25682965 0.3027135 0.35262862 0.22548577
000090 18 96 ef be 96 ff 0d 3e e2 c7 00 bf 9d b2 6a be
       -0.467942 0.1386703 -0.50304997 -0.22919698
0000a0 91 85 e2 3e 4d 4c 8d be f2 32 42 3f 42 2d a3 bf
       0.44242528 -0.27597275 0.75858986 -1.2748187
0000b0 88 99 b0 3e d1 aa 41 3e 0e b4 7e be 49 3c 02 3f
       0.34492135 0.18912818 -0.24873373 0.5087324
0000c0 43 37 3f bf e7 ba b9 3e e7 01 c5 be 65 9b b7 be
       -0.746937 0.36275408 -0.38478014 -0.35860744
0000d0 97 e8 65 3d 1b 06 75 be 40 c9 b8 be 8f 9a 4f 3e
       0.056130018 -0.2392811 -0.36091042 0.20273803
0000e0 6d db 91 be 0a ce ab 3e c0 a1 06 3f c5 fd a1 bf
       -0.2848772 0.33555633 0.5259056 -1.2655569
0000f0 03 bc 58 be 50 55 07 c0 e1 3c 9d be b1 3c 22 3e
       -0.21165471 -2.114582 -0.3071051 0.15843464

linear3.bias f4 [2]
000000 46 0e ba 3f af b3 36 3e
       1.4535606 0.17841981
