model/generator_adamw_bceonly_log.pth (torch, 14608 bytes, 6 tensors)

linear1.weight f4 [32, 20]
0	0x3f37ebb9	0.7184406
1	0xbf3efc63	-0.7460386
2	0x3f2cd9b3	0.6751968
3	0x3f3fdd34	0.74946904
4	0x3f2a3280	0.66483307
5	0xbee3ff5a	-0.44530755
6	0x3f3d4717	0.739366
7	0x3f0c3dcf	0.5478181
8	0xbf44273d	-0.7662237
9	0xbf301281	-0.68778235
10	0x3f1d6f6a	0.6149813
11	0xbefefbe2	-0.49801546
12	0xbf0e66c6	-0.5562557
13	0x3e8f7c4e	0.28024524
14	0x3d1d3094	0.038376406
15	0x3f31886c	0.6934879
16	0xbeaa1c03	-0.33224496
17	0xbd163c34	-0.036678508
18	0xbcfcbbb0	-0.030851215
19	0xbd524d23	-0.051343095
20	0x3e95deab	0.29271445
21	0xbe8080ef	-0.2509837
22	0x3e747c0c	0.23875445
23	0x3e1add8c	0.15123576
24	0x3e113390	0.14179826
25	0xbdffc592	-0.124888554
26	0x3e029250	0.12751126
27	0x3e2792cc	0.16364592
28	0xbe433ae6	-0.19065437
29	0xbe2951d4	-0.16535121
30	0x3e868d0c	0.26279485
31	0xbdc55d9f	-0.096369974
32	0xbde4fa6a	-0.11180575
33	0x3e3ac564	0.18239361
34	0x3d91aa5f	0.07112574
35	0x3e39213c	0.18079084
36	0xbe38fae1	-0.18064453
37	0xbd18e4a8	-0.03732744
38	0x3eab6ab4	0.33479846
39	0x3ef1b666	0.4720947
40	0x3ef39e9a	0.4758194
41	0xbf151c12	-0.58245957
42	0x3eedae6c	0.46422136
43	0x3eab6bea	0.3348077
44	0x3f15a20b	0.5845038
45	0xbeac3c8e	-0.3363995
46	0x3e9d3894	0.30707228
47	0x3ed6e5a3	0.41972074
48	0xbf0471de	-0.5173625
49	0xbef5fb2d	-0.48043194
50	0x3ef6a46d	0.48172322
51	0x3e6af6b4	0.22945672
52	0xbd4f2d4d	-0.05058031
53	0xbca689a4	-0.020329304
54	0x3dfba44e	0.12287198
55	0x3e9d59a9	0.30732468
56	0xbe5fad9c	-0.2184357
57	0x3e1ab9c8	0.15109932
58	0x3e296eb3	0.16546135
59	0x3e89abba	0.2688883
60	0xbe0778e3	-0.13229708
61	0x3e299ba0	0.16563272
62	0x3e596b2a	0.21232286
63	0x3ebd6638	0.3699205
64	0x3db129c3	0.086505435
65	0xbdb15465	-0.08658675
66	0x3e5d3fbd	0.21606345
67	0x3d9f3fa6	0.07775812
68	0xbe46f783	-0.19430356
69	0xbe62a331	-0.22132565
70	0xbd3c81b1	-0.04602212
71	0xbe8ca02b	-0.27465948
72	0xbf1c84db	-0.6114022
73	0xbec64c69	-0.3873017
74	0xbeca6df3	-0.3953701
75	0x3e891e0a	0.2678073
76	0xbdcc2fef	-0.0997008
77	0x3da95970	0.08269012
78	0x3e0d2cbf	0.137866
79	0x3c46cbf2	0.012133585
80	0x3f12e8b8	0.5738635
81	0xbf254b6e	-0.6456822
82	0x3f12dbee	0.57366836
83	0x3f2c5cfe	0.67329395
84	0x3f131fff	0.574707
85	0xbecc2b03	-0.39876565
86	0x3eedc067	0.46435854
87	0x3f0495b7	0.51790947
88	0xbf172b49	-0.5905042
89	0xbf051b74	-0.51995015
90	0x3efe6bfa	0.49691755
91	0xbe63e87b	-0.22256653
92	0xbe85b384	-0.26113522
93	0x3e3a90bf	0.18219279
94	0x3d053ae1	0.032526854
95	0x3efe3ac1	0.496542
96	0xbe48b5d2	-0.19600609
97	0xbe5cc337	-0.21558844
98	0x3df68d1a	0.12038632
99	0x3e157927	0.14596997
100	0x3f0bccd2	0.54609406
101	0xbf18b73b	-0.5965459
102	0x3edca3f1	0.43093827
103	0x3f178f69	0.592032
104	0x3ebfa95c	0.37433898
105	0xbe830f56	-0.25597638
106	0x3f11eba0	0.5700016
107	0x3eed612e	0.46363205
108	0xbf0e6176	-0.55617464
109	0xbf21666a	-0.63046896
110	0x3e840660	0.25786114
111	0xbf0750d7	-0.52857727
112	0xbf09612a	-0.53663886
113	0xbe428bfa	-0.1899871
114	0xbe6a63c1	-0.22889616
115	0x3f12a4bf	0.5728263
116	0x3dbadf11	0.09124578
117	0x3e8b1bc5	0.27169624
118	0xbe3923ee	-0.18080112
119	0x3e045636	0.12923512
120	0x3dc8a343	0.09796765
121	0x3e38ee93	0.18059759
122	0xbe43c690	-0.19118714
123	0xbcc80113	-0.024414575
124	0x3cbdc834	0.023166753
125	0xbda511ed	-0.0806006
126	0xbe3a380c	-0.18185443
127	0xbcca36c4	-0.024684317
128	0x3e04d259	0.12970866
129	0xbe18104f	-0.14849971
130	0xbdf255ed	-0.11832795
131	0xbe77ef34	-0.24212343
132	0x3e7fafce	0.24969408
133	0x3c7f1743	0.015569511
134	0x3e2c5cf3	0.16832332
135	0xbe30c811	-0.1726382
136	0xbd90c1dc	-0.07068226
137	0xbb887b18	-0.0041650645
138	0x3ea1a32c	0.31569803
139	0x3ee15fdd	0.4401845
140	0xbf30027b	-0.68753785
141	0x3ed9e3dc	0.42556655
142	0xbf256b56	-0.64616907
143	0xbf0f33dd	-0.5593851
144	0xbf163391	-0.58672434
145	0x3f1f574e	0.6224259
146	0xbf3828b1	-0.7193709
147	0xbf23d354	-0.63994336
148	0x3f2998c9	0.66248757
149	0x3f19d637	0.6009249
150	0xbf552ec5	-0.8327449
151	0x3ea8a642	0.32939345
152	0x3ebde13b	0.370859
153	0xbf58c9f9	-0.84683186
154	0xbf043437	-0.51642174
155	0xbf4c4352	-0.7979022
156	0xbdec6670	-0.11542976
157	0x3ea919d6	0.33027524
158	0x3e548690	0.20754457
159	0xbdc5283d	-0.096268155
160	0x3ecce11a	0.4001549
161	0xbef0cc81	-0.47031024
162	0x3ec39015	0.38195863
163	0x3ee58fdd	0.4483632
164	0x3efa5430	0.48892355
165	0xbe863196	-0.26209706
166	0x3ed4fabd	0.41597548
167	0x3eab6a6e	0.33479637
168	0xbee3bc90	-0.444798
169	0xbe9ef112	-0.31043297
170	0x3e8603f3	0.26174888
171	0xbe359318	-0.17731893
172	0xbe74e7ac	-0.23916501
173	0xbd0f8f88	-0.03504899
174	0x3b2abb1e	0.0026051472
175	0x3ea9146d	0.33023396
176	0xbea34c06	-0.3189394
177	0x3d988d33	0.074488066
178	0x3d90bda0	0.07067418
179	0x3e0b9cd6	0.13634047
180	0xbe1d6f78	-0.15374553
181	0xbe277de0	-0.16356611
182	0xbd3f9eab	-0.046782177
183	0xbda2893a	-0.0793633
184	0xbe0c6a5d	-0.1371245
185	0xbd658a6a	-0.056040205
186	0xbc9cc1f0	-0.019135445
187	0xbeb5b8bc	-0.35492504
188	0x3dfba090	0.12286484
189	0xbe9220a4	-0.28540528
190	0xbe128830	-0.14309764
191	0x3e6df142	0.23236564
192	0x3eaf9b71	0.3429828
193	0xbf217898	-0.63074636
194	0x3e2633fd	0.1623077
195	0xbeca5a94	-0.3952223
196	0xbe83f061	-0.25769332
197	0x3e31a5f4	0.17348462
198	0x3d670727	0.056403305
199	0x3d6ded9d	0.058087934
200	0xbf02ebf5	-0.5114129
201	0x3e9e5619	0.30925062
202	0xbeda66ca	-0.42656547
203	0xbedd738f	-0.43252227
204	0xbe7714e7	-0.24129067
205	0x3ec7d6c9	0.39031056
206	0xbef0533e	-0.4693851
207	0xbee6b1db	-0.45057568
208	0x3f099a6f	0.5375127
209	0x3ef6eda7	0.4822819
210	0xbf23caa1	-0.6398106
211	0x3e99ab37	0.3001344
212	0x3ee71580	0.4513359
213	0xbf392fa9	-0.7233835
214	0xbee5850d	-0.44828072
215	0xbf237d85	-0.638634
216	0xbe8ca363	-0.27468404
217	0xbe6e775f	-0.23287724
218	0x3e39e53b	0.1815385
219	0x3e051180	0.12994957
220	0xbf2b3da2	-0.6689092
221	0x3f10c14f	0.56544966
222	0xbf243a55	-0.6415151
223	0xbf286cfa	-0.65791285
224	0xbef5d4d0	-0.48013926
225	0x3f1136d9	0.56724316
226	0xbf37b4e1	-0.71760374
227	0xbf234068	-0.6377015
228	0x3f324a28	0.69644403
229	0x3f2f5e00	0.6850281
230	0xbf4e95d0	-0.80697346
231	0x3ef593f8	0.47964454
232	0x3f13c8bc	0.5772817
233	0xbf4f369d	-0.8094271
234	0xbf1acf0f	-0.60472196
235	0xbf468ae2	-0.7755567
236	0xbe319785	-0.17342956
237	0xbe8f549c	-0.2799424
238	0xbeacc329	-0.33742645
239	0xbefc6311	-0.49294332
240	0xbf49e674	-0.7886727
241	0x3ecceff7	0.4002683
242	0xbf503bd2	-0.8134128
243	0xbf0b9ede	-0.5453929
244	0xbf1eb0dd	-0.6198862
245	0x3f0aa6c0	0.5416069
246	0xbf3e0175	-0.74220973
247	0xbf4a928a	-0.7912985
248	0x3f422375	0.75835353
249	0x3f2afe9e	0.66794765
250	0xbf69f1aa	-0.91384375
251	0xbddcbeb2	-0.1077856
252	0x3e9591d4	0.2921282
253	0xbf82f7fd	-1.023193
254	0xbf36ed5f	-0.7145595
255	0xbf4f9836	-0.8109163

linear1.bias f4 [32]
0	0xbee18fd2	-0.4405504
1	0x3e09016b	0.13379447
2	0x3da49c5a	0.08037634
3	0x3e98f852	0.29876953
4	0xbe4a94f5	-0.19783385
5	0x3e032642	0.12807563
6	0x3f245d0e	0.6420449
7	0xbda9cb3d	-0.08290718
8	0x3e17b4fe	0.14815137
9	0x3de2d763	0.11076238
10	0x3d5dbc7f	0.054134842
11	0xbf19a46e	-0.60016525
12	0x3cdc754d	0.026911402
13	0xbe42e18e	-0.19031355
14	0xbdbd3ce2	-0.09240128
15	0xbd987196	-0.0744354
16	0x3d74fc03	0.05981065
17	0xbd7452b7	-0.059649196
18	0x3d1a8157	0.037721004
19	0x3da01c81	0.07817937
20	0x3d1867a2	0.037208207
21	0x3dc00761	0.093764074
22	0x3ea10043	0.31445512
23	0x3d4a0031	0.04931659
24	0xbde8a3e1	-0.113593824
25	0x3cabc1c6	0.020966422
26	0xbe29b647	-0.1657344
27	0x3e73597f	0.23764609
28	0x3e58e08f	0.21179412
29	0x3f6a0f7e	0.9142989
30	0x3db592b1	0.0886587
31	0xbda3ca79	-0.07997603

linear2.weight f4 [64, 32]
0	0x3cfb77d9	0.030696796
1	0xbdab35b9	-0.08359856
2	0x3eb6f73b	0.35735497
3	0x3cf564f1	0.02995536
4	0x3e656e0c	0.22405261
5	0x3e84d2c1	0.25942042
6	0xbe35646f	-0.17714094
7	0xbdabc7e1	-0.08387733
8	0xbdb2b4c8	-0.087258875
9	0xbda7676a	-0.081740215
10	0xbe0955b5	-0.13411601
11	0x3d2cad39	0.042157385
12	0x3d87d7c4	0.06632951
13	0x3df6c5db	0.12049457
14	0xbe106ae2	-0.14103273
15	0x3e381f68	0.1798073
16	0x3e802f35	0.25036016
17	0xbd274ae0	-0.04084289
18	0x3d0fe71d	0.035132516
19	0x3de57760	0.112044096
20	0x3e2a9b67	0.16660844
21	0x3e30f902	0.17282489
22	0x3e3d212b	0.18469684
23	0xbc13f389	-0.009030231
24	0xbdb2a1b3	-0.08722248
25	0x3e2d9bd7	0.1695398
26	0xbe26d141	-0.16290762
27	0xbeb5a11f	-0.35474488
28	0x3eb1691f	0.34650514
29	0x3dd24b3b	0.10268255
30	0xbd72206a	-0.059112944
31	0x3dccc747	0.09998947
32	0x3d733a19	0.059381578
33	0x3c42256b	0.011849741
34	0x3e989b33	0.29805908
35	0xbc04f448	-0.008114882
36	0x3d8727f6	0.06599419
37	0x3e3fde67	0.18737184
38	0xbd5d66f4	-0.054053262
39	0x3d7a6bd1	0.061137978
40	0x3e051a3a	0.12998286
41	0xbe61b548	-0.2204181
42	0x3dc2b243	0.09506657
43	0x3d89d274	0.06729594
44	0xbdafefa8	-0.08590633
45	0xbdb4793a	-0.08812185
46	0xbe1e1187	-0.15436374
47	0x3c3db775	0.011579384
48	0x3e8e051d	0.27738276
49	0xbceb4c86	-0.028723013
50	0x3eb12158	0.34595752
51	0x3e27a6a3	0.1637216
52	0x3d542f96	0.051803194
53	0xbcea813a	-0.028626073
54	0x3e5c5b59	0.21519221
55	0xbda24be6	-0.07924633
56	0xbe0f15ed	-0.13973208
57	0x3e947825	0.28997913
58	0x3b89f4c4	0.0042100865
59	0xbe975bdf	-0.2956228
60	0x3d955b7e	0.072928414
61	0x3d7e7932	0.0621273
62	0x3e02c1e6	0.12769279
63	0x3dc9879d	0.09840319
64	0x3e18654b	0.1488239
65	0xbd02aa9c	-0.031900987
66	0xbcf051c5	-0.029335866
67	0xbe1d0b27	-0.15336286
68	0x3e38e1ca	0.18054882
69	0x3dd1d282	0.10245229
70	0xbdaee51d	-0.08539794
71	0xbb347a25	-0.0027538624
72	0xbde633cb	-0.112403475
73	0x3bbd9347	0.005785379
74	0x3e1e8492	0.15480259
75	0x3d84b70d	0.06480227
76	0x3c97bcce	0.018522646
77	0xbde155b9	-0.110026784
78	0xbcd57e3e	-0.026061174
79	0x3e2a16a5	0.166102
80	0xbe5f9bad	-0.2183673
81	0x3d2573e2	0.040393718
82	0xbd2e736b	-0.04259054
83	0x3dff44d0	0.12464297
84	0x3d99032e	0.074713096
85	0x3e4429fd	0.19156642
86	0x3df22480	0.11823368
87	0x3dabe16c	0.08392605
88	0xbe259ba1	-0.16172649
89	0x3c6a5dfa	0.014304632
90	0x3e0e0d08	0.13872159
91	0x3e28478d	0.16433544
92	0x3e51ba40	0.20481205
93	0x3c802e80	0.015647173
94	0xbe1f6bb7	-0.15568434
95	0xbca8e0cb	-0.020615002
96	0x3e21cf4f	0.15801738
97	0xbdc798ec	-0.097459644
98	0xbe7a009f	-0.244143
99	0xbe476915	-0.1947368
100	0xbdafc325	-0.08582143
101	0xbcc3adde	-0.023886617
102	0xbcb3061f	-0.021853505
103	0xbc6993bc	-0.014256414
104	0x3e090c83	0.13383679
105	0x3d8b3b77	0.067984514
106	0x3dbb5a95	0.091481365
107	0x3e5a85d7	0.21340118
108	0x3e71ca79	0.23612393
109	0x3db8209e	0.08990596
110	0x3e152839	0.14566125
111	0x3cf2aa28	0.029622152
112	0xbddcb078	-0.10775846
113	0x3d91ba6e	0.07115637
114	0xbe01660d	-0.12636586
115	0xbcd75c98	-0.02628927
116	0xbd85d062	-0.065338865
117	0xbce60b98	-0.0280817
118	0xbe2d39c6	-0.1691657
119	0x3df2cfb0	0.118560195
120	0xbe029230	-0.12751079
121	0x3cf9fa88	0.03051497
122	0x3d86a926	0.06575231
123	0x3e423247	0.18964492
124	0x3e0c9813	0.13729887
125	0xbe702af9	-0.23453893
126	0xbdb56fc5	-0.08859209
127	0x3da6784f	0.08128416
128	0xbc3f2be2	-0.011668177
129	0x3d923aa5	0.07140092
130	0x3e79921c	0.24372143
131	0xbd1f4652	-0.038885422
132	0x3ead7b1c	0.33882987
133	0x3df03871	0.11729515
134	0x3e5dbdc0	0.21654415
135	0xbdb6e314	-0.089300305
136	0x3e8cffdc	0.27538955
137	0x3e0ae762	0.13564828
138	0xbe28a088	-0.16467488
139	0x3d8cbcc7	0.06871944
140	0xbdf1539c	-0.11783525
141	0x3da95e28	0.08269912
142	0x3c88ce08	0.016699806
143	0x3e302d4a	0.17204776
144	0x3e78a538	0.24281776
145	0x3eb31387	0.34975836
146	0x3dea7084	0.11447242
147	0x3e03095e	0.12796542
148	0x3e75affb	0.23992912
149	0x3de0bb89	0.109732695
150	0x3ec60e89	0.38682964
151	0xbe22c1a0	-0.15894175
152	0x3dfa7be5	0.12230662
153	0x3dcc9db8	0.0999102
154	0xbb92f989	-0.0044853133
155	0xbe189f1e	-0.14904448
156	0x3eb173eb	0.3465875
157	0x3e73bed6	0.23803267
158	0xbdacc19d	-0.08435366
159	0xbdc4f7e0	-0.09617591
160	0x3d60ba6c	0.054865286
161	0x3e0c3362	0.13691476
162	0x3d0adb01	0.033900265
163	0xbd811445	-0.06302694
164	0x3e2c841c	0.1684727
165	0xbb30fc45	-0.0027005833
166	0x3c6116a9	0.013738313
167	0x3e96297e	0.2932853
168	0xbd150521	-0.036381844
169	0x3dd82171	0.105532534
170	0x3e45255f	0.19252537
171	0xbd77d98a	-0.060510196
172	0x3ddfa638	0.109203756
173	0xbc928603	-0.017886167
174	0x3e2a624e	0.16639063
175	0x3df90fc9	0.12161214
176	0xbe09d92a	-0.13461748
177	0x3d5b327b	0.05351494
178	0xbe83206f	-0.25610682
179	0x3c5f4b87	0.013628847
180	0xbdc2c421	-0.09510065
181	0xbe89442e	-0.2680983
182	0xbd180a24	-0.037119046
183	0x3d464bf5	0.048412282
184	0x3ce4148e	0.027841832
185	0x3aa358b8	0.0012462353
186	0x3d90c41f	0.07068657
187	0x3ea8fa75	0.33003584
188	0x3aad89d2	0.0013239926
189	0x3dc13f7b	0.09435936
190	0xbcf19f11	-0.029494794
191	0x3e08f34b	0.13374059
192	0x3e9ee49b	0.31033787
193	0x3e0b5bfa	0.13609305
194	0x3e3a07f2	0.18167093
195	0x3d36417c	0.044496045
196	0x3e56eea1	0.20989467
197	0x3c8c938d	0.017160201
198	0xbe6ba601	-0.23012544
199	0xbde51f52	-0.111876145
200	0x3e4b06be	0.1982679
201	0xbe05b6a6	-0.13057956
202	0xbdeab880	-0.11460972
203	0x3dda4a71	0.1065873
204	0xbe9dc12b	-0.30811438
205	0xbddd6c59	-0.10811681
206	0x3d995817	0.07487505
207	0xbd99d368	-0.07511026
208	0x3e845653	0.2584711
209	0x3e1958e5	0.14975317
210	0x3e22e037	0.15905844
211	0x3ea548a4	0.32281983
212	0x3dce5c40	0.10076189
213	0x3e159595	0.14607842
214	0x3e159d38	0.14610755
215	0xbdbfac9d	-0.09359095
216	0xbe41c73f	-0.18923663
217	0x3dd6c476	0.10486691
218	0xbcb301ac	-0.021851383
219	0xbe8e39f9	-0.27778605
220	0x3e363de2	0.17797044
221	0xbe431b17	-0.19053303
222	0x3e272994	0.16324455
223	0x3e0751ea	0.13214841
224	0x3e387fb9	0.18017472
225	0x3db26b85	0.08711914
226	0x3e46e726	0.19424114
227	0x3ce369f3	0.027760481
228	0xbcb8780f	-0.022518186
229	0x3da13681	0.07871724
230	0x3ced0ac4	0.028935798
231	0x3dc28c0e	0.094993696
232	0xbc5de90a	-0.01354433
233	0xbe38b76d	-0.18038721
234	0xbd6fe5a8	-0.058568627
235	0x3dca8939	0.098894544
236	0x3db3c8e7	0.087785535
237	0xbd5e115b	-0.05421577
238	0xbe3cb402	-0.18428043
239	0xbccfed3a	-0.025381673
240	0x3e05f90e	0.13083288
241	0xbc5b7b22	-0.013396056
242	0x3dbd4250	0.09241164
243	0x3e1a5978	0.15073192
244	0x3e309643	0.1724482
245	0x3d3f40c9	0.046692643
246	0x3ecaa82e	0.39581436
247	0x3dbedef1	0.093198664
248	0xbe0d45da	-0.13796178
249	0x3c0098e9	0.007848957
250	0xbd949941	-0.07255793
251	0xbd9e8df1	-0.07741917
252	0x3c77e176	0.015129438
253	0x3dc2b356	0.09506862
254	0x3da811e6	0.08206539
255	0xbe59eda8	-0.21282065

linear2.bias f4 [64]
0	0xbd020424	-0.03174223
1	0xbe46f17b	-0.19428055
2	0x3d89d4e3	0.06730058
3	0x3d8ee59a	0.06977387
4	0xbdc94c19	-0.098289676
5	0x3ca27b63	0.019834226
6	0xbe511075	-0.20416434
7	0xbe2d6141	-0.1693163
8	0xbe76720d	-0.24066944
9	0x3e15a217	0.14612614
10	0xbe4f1560	-0.20222998
11	0x3b0a58fd	0.002111017
12	0xbe7f65cd	-0.24941178
13	0x3bb5eed9	0.0055521545
14	0xbe63d5cc	-0.22249526
15	0x3dc95307	0.09830289
16	0xbdd09ed3	-0.10186543
17	0x3d1d2fad	0.038375545
18	0xbeb41dae	-0.35178894
19	0xbdf449f3	-0.11928167
20	0xbd659974	-0.056054547
21	0x3e053d2b	0.13011615
22	0xbdd42fe7	-0.10360699
23	0xbe008909	-0.12552275
24	0x3ded8807	0.11598211
25	0x3d8b61d3	0.06805768
26	0x3e34e38e	0.1766493
27	0xbe1d0b5d	-0.15336366
28	0xbd2ec757	-0.042670574
29	0xbd678814	-0.05652626
30	0x3e4449ef	0.19168828
31	0xbe027b14	-0.12742263
32	0xbde930a4	-0.113862306
33	0x3b0e18b5	0.0021682207
34	0xbdc8b466	-0.09800033
35	0xbe81056b	-0.25199446
36	0x3e49207f	0.19641303
37	0x3e0d0701	0.13772203
38	0x3d9c56be	0.07633732
39	0x3c997152	0.018730793
40	0x3de17bcd	0.11009941
41	0x3d658f28	0.056044728
42	0xbdd6c6fc	-0.10487172
43	0xbd8ae1c0	-0.0678134
44	0xbdebbfab	-0.11511167
45	0xbda6edcf	-0.08150827
46	0x3de8860f	0.11353695
47	0xbd827036	-0.06369059
48	0x3dd4d778	0.1039266
49	0x3e083e41	0.13304998
50	0xbdaa76ea	-0.08323462
51	0x3e1c7214	0.15277892
52	0x3bfdbfe1	0.007743821
53	0x3e159e27	0.14611112
54	0x3cc18fbc	0.023628108
55	0xbf0ad1f9	-0.5422664
56	0xbebe4d72	-0.3716846
57	0xbd45095e	-0.048104636
58	0x3d397f00	0.045287132
59	0x3e2d1627	0.16902982
60	0xbcc3328d	-0.023827815
61	0xbe19853e	-0.14992234
62	0xbc8a0f96	-0.016853135
63	0x3d58755b	0.052846294

linear3.weight f4 [2, 64]
0	0x3e9256f7	0.28581974
1	0x3e2f6b5d	0.171308
2	0xbad393b8	-0.0016142046
3	0xbdf0f592	-0.11765589
4	0x3e1e9ed9	0.15490283
5	0xbdba658f	-0.09101402
6	0x3e92251c	0.28543937
7	0x3e01ca2e	0.12674782
8	0x3e3c53b4	0.18391305
9	0xbe0cd34e	-0.13752481
10	0x3e89e6cf	0.26933905
11	0x3e45de8c	0.19323176
12	0xbf87121f	-1.0552405
13	0xbe4e47fa	-0.20144644
14	0xbd13da0b	-0.036096614
15	0xbe15545f	-0.14582966
16	0xbd4ba1b4	-0.04971476
17	0xbde29d1e	-0.11065124
18	0x3d95176d	0.07279859
19	0x3e609944	0.21933466
20	0x3e2e7dbe	0.17040154
21	0xbe00c3b9	-0.12574662
22	0xbc45a2a6	-0.012062704
23	0x3e08ea85	0.13370712
24	0xbdf471c9	-0.11935765
25	0xbe57a4db	-0.21058981
26	0xbd4f122c	-0.05055444
27	0xbe6a7f1c	-0.22900051
28	0xbe96f595	-0.2948424
29	0xbdf58107	-0.11987501
30	0xbdd7eded	-0.105434276
31	0x3e175cc2	0.14781478
32	0xbe271563	-0.16316752
33	0xbdf6e4c5	-0.12055353
34	0xbe5f2ee9	-0.21795239
35	0x3e3a4248	0.18189347
36	0xbdeef471	-0.11667717
37	0xbd2619c3	-0.040551912
38	0x3e7ef569	0.24898304
39	0x3ddbcedb	0.10732814
40	0xbe614d3f	-0.22002123
41	0xbde07b09	-0.10960967
42	0x3d9c99fa	0.07646556
43	0xbe2483b3	-0.16065864
44	0x3e31a148	0.1734668
45	0x3e1ae1e7	0.15125237
46	0xbe194f16	-0.14971575
47	0x3e3f5d79	0.18688
48	0x3de9f262	0.11423184
49	0xbd717f18	-0.058959097
50	0x3e0a3ed1	0.13500525
51	0xbe426e03	-0.18987279
52	0xbe437aba	-0.19089785
53	0xbdb9a2ae	-0.09064232
54	0xbe2634d5	-0.16231091
55	0xbf3a92e1	-0.7288037
56	0x3cac8712	0.0210605
57	0x3e259404	0.16169745
58	0x3e2bd727	0.16781293
59	0xbdae8915	-0.0852224
60	0x3e646645	0.22304638
61	0xbdefe6b6	-0.117139265
62	0x3e3caf76	0.18426308
63	0xbe4627ee	-0.1935117
64	0x3c8246a8	0.015902832
65	0x3c4fa173	0.01267277
66	0x3de1f0ec	0.1103228
67	0xbca7b92a	-0.020474035
68	0xbb5e62bb	-0.003393336
69	0x3ca6071b	0.02026706
70	0x3d7efe2c	0.062254116
71	0xbd1d803d	-0.038452376
72	0xbe62a17e	-0.22131917
73	0xbd8c5968	-0.068529904
74	0xbc5617b6	-0.013067177
75	0xbd268e44	-0.04066302
76	0xbd3ef388	-0.04661897
77	0xbc83d055	-0.016090551
78	0x3e07bae3	0.13254885
79	0x3c1ec55d	0.00969061
80	0x3e9e2ddf	0.30894372
81	0xbe0653f5	-0.13117965
82	0xbe094e63	-0.13408808
83	0x3da0e4e6	0.07856159
84	0x3d8d11b7	0.068881445
85	0xbe1aba3b	-0.15110104
86	0x3e6db33d	0.23212905
87	0xbe842dbd	-0.25816146
88	0x3d99845a	0.07495947
89	0xbd1b8a12	-0.03797347
90	0xbd2349db	-0.039865356
91	0xbdb03feb	-0.086059414
92	0xbd494337	-0.049136367
93	0xbd707720	-0.058707356
94	0x3d474473	0.048649263
95	0xbce0751e	-0.027399596
96	0x3dd27120	0.10275483
97	0xbd09ea5e	-0.033670776
98	0x3ce81b2e	0.028333273
99	0x3dd0224e	0.10162793
100	0x3e65ee3e	0.22454163
101	0xbdbbfec4	-0.09179452
102	0xbdfafc64	-0.12255171
103	0x3d5892b0	0.052874267
104	0xbda369cb	-0.07979163
105	0x3cc1a3f1	0.023637744
106	0x3e6bfe19	0.2304615
107	0x3cd30b5e	0.025762256
108	0xbe02b66d	-0.12764902
109	0x3c8cf631	0.017207237
110	0xbbeda2b7	-0.007252063
111	0x3d54d365	0.051959414
112	0xbcc99737	-0.024608238
113	0x3ce45e23	0.02787692
114	0xbe288c34	-0.16459733
115	0xbdd35de7	-0.10320645
116	0xbba1f3c2	-0.0049423883
117	0xba96b127	-0.0011496887
118	0xbd080f20	-0.03321755
119	0x3d86b1eb	0.06576904
120	0xbdc5f675	-0.096661486
121	0x3d737707	0.059439685
122	0x3ce2f02f	0.02770242
123	0x3e12fb22	0.14353612
124	0x3dad79c7	0.08470493
125	0xbcbda3c9	-0.023149388
126	0xbceba531	-0.028765293
127	0x3baafb5f	0.005217954

linear3.bias f4 [2]
0	0xbd85e69a	-0.065381244
1	0x3dcb0ddf	0.09914755
