model/generator_parameters.pth (torch, 7626 bytes, 6 tensors)

linear1.weight f4 [16, 36]
-0.016191319 0.013850399 0.039331723 -0.00045366373 -0.011939073 -0.013639489 -0.04434453 0.011479309
0.02190752 -0.016286952 -0.014913866 0.012927716 -0.004989718 0.012362608 0.012675457 -0.0028667492
-0.004684267 0.0022927443 -0.028727394 -0.026030416 -0.043346014 0.042135835 0.02504768 -0.040477246
0.022175768 0.026033979 0.036676385 0.028082289 0.022465646 0.038515773 -0.03738885 0.0031638327
-0.9298445 0.56329167 -0.027988372 0.01715663 0.032608654 -0.087666124 0.032460704 -0.11112575
0.13292278 -0.029085174 0.11851965 -0.02057462 -0.026652928 -0.06508288 0.084732145 0.081109695
0.1365732 0.0105149895 -0.016574863 0.03545436 -0.054088745 0.032114588 0.08653799 0.10199753
0.1098314 0.013422893 -0.03909382 -0.0127112875 -0.16174836 -0.017127596 -0.019243713 -0.05449409
0.039472647 -0.053274274 0.1552509 0.14667913 0.48303828 -0.2894531 -0.5368688 -0.6561913
0.034762897 0.08498843 0.005100627 -0.02988898 0.0060286825 -0.029021315 -0.03465351 -0.026215445
-0.0011472537 0.07574484 -0.028140921 -0.09400587 -0.05061192 -0.010736683 -0.060529366 -0.048073765
-0.036747668 -0.06567584 -0.07907997 0.0036142662 -0.012386926 0.071806535 0.08676641 0.09814523
0.066437766 0.017872892 0.010982532 -0.07233479 0.07625494 0.0013418937 -0.0860683 -0.084340684
-0.9615918 0.16683662 1.7989007 1.6626382 0.08014768 -0.054153144 0.014362786 -0.054004602
0.042563573 -0.0020057925 -0.0073807 -0.022679795 0.010578855 0.036257368 0.027438123 0.007462105
0.04657885 -0.028754424 -0.042771537 -0.0035439448 -0.0053668534 0.0058074743 0.058892827 0.036622748
0.08535347 -0.033319574 -0.02535584 0.013319075 -0.07980134 0.068769194 -0.03589176 0.024514025
-0.021409394 -0.026949512 0.112683505 -0.0028028146 0.3635283 0.132392 -0.7283698 -0.8231326
0.14212775 -0.020104367 0.035544317 -0.023260873 -0.04728154 -0.035616383 -0.08924446 0.025567712
0.07116238 0.088215955 0.042184528 -0.059414227 -0.038557965 -0.10324817 -0.11139952 -0.09842246
0.02418941 -0.040209923 -0.037983146 -0.008908389 -0.023266224 0.016037172 0.04407754 -0.029623717
0.023532432 0.067311175 -0.04864252 0.024068367 0.03492057 0.08388132 0.035480328 -0.12510411
0.25249887 -0.030341007 1.054485 1.5871453 -0.02259457 0.08950837 0.08859392 0.063432686
-0.010775992 -0.057779867 -0.062437672 0.039555326 0.11448584 0.0029753058 -0.10479558 0.06806482
-0.087363236 0.024528433 0.032013472 -0.008484205 0.058539774 0.0074459994 -0.09817354 -0.16127828
-0.12131397 0.07699855 0.07411918 -0.05415035 0.048019357 -0.02721289 0.06492953 0.1293393
0.035806857 0.14616232 -0.18901367 -0.092329636 -0.21071441 -0.02544966 1.6798229 1.5291288
-0.0032615403 0.02329921 -0.036310945 0.035928514 0.06900647 -0.013509994 0.03337352 -0.024803692
-0.006635256 0.13537103 -0.082789026 -0.10752948 -0.0061887517 -0.017507395 -0.05640755 -0.07074439
-0.014293919 -0.08941617 -0.069857866 -0.08178448 0.015602819 0.031326074 0.098830275 0.12006755
-0.04636126 0.05211242 -0.07019115 -0.07965166 -0.02029698 -0.013141453 -0.06534325 0.03532941
0.24033682 0.04434626 0.9866756 1.2772008 0.060951617 -0.08817386 -0.108611636 -0.08557067
00000000: a8a3 84bc c9ec 623c 4d1a 213d b7d9 edb9
00000010: 1a9c 43bc 2a78 5fbc 9ca2 35bd b613 3c3c
00000020: 6677 b33c 376c 85bc 4a59 74bc c5ce 533c
00000030: ca80 a3bb 898c 4a3c b8ac 4f3c 12e0 3bbb
00000040: 7b7e 99bb de41 163b b655 ebbc bd3d d5bc
00000050: 978b 31bd a096 2c3d cb30 cd3c 78cb 25bd
00000060: f5a9 b53c 3645 d53c fa39 163d d40c e63c
00000070: e009 b83c b7c2 1d3d 0d25 19bd 4e58 4f3b
00000080: 4a0a 6ebf e233 103f df47 e5bc 108c 8c3c
00000090: a790 053d 4c8a b3bd 84f5 043d e695 e3bd
000000a0: e91c 083e 0844 eebc 6eba f23d 1b8c a8bc
000000b0: 3e57 dabc 2c4a 85bd 0c88 ad3d d71c a63d
000000c0: d8d9 0b3e 1047 2c3c 02c8 87bc 9738 113d
000000d0: 298c 5dbd 968a 033d d43a b13d 15e4 d03d
000000e0: 49ef e03d b2eb 5b3c d720 20bd 0143 50bc
000000f0: 5da1 25be 2c4f 8cbc fea4 9dbc 3235 5fbd
00000100: 12ae 213d 2036 5abd 18fa 1e3e 0e33 163e
00000110: cb50 f73e 3233 94be 3c70 09bf 27fc 27bf
00000120: 8a63 0e3d 6a0e ae3d 2923 a73b bcd9 f4bc
00000130: 418c c53b 1cbe edbc d7f0 0dbd c6c1 d6bc
00000140: 725f 96ba 1c20 9b3d ca87 e6bc 2686 c0bd
00000150: 724e 4fbd eae8 2fbc a4ed 77bd ffe8 44bd
00000160: b984 16bd 0e81 86bd aef4 a1bd 53dd 6c3b
00000170: 89f2 4abc 4e0f 933d 96b2 b13d 5e00 c93d
00000180: 8610 883d 2c6a 923c 14f0 333c 4324 94bd
00000190: 8d2b 9c3d 7be2 af3a 9444 b0bd cfba acbd
000001a0: e12a 76bf 38d7 2a3e 6142 e63f 54d1 d43f
000001b0: 7824 a43d b0cf 5dbd e451 6b3c ee33 5dbd
000001c0: 2457 2e3d 9d73 03bb cdd9 f1bb faca b9bc
000001d0: ef52 2d3c 9b82 143d eac5 e03c ac84 f43b
000001e0: 77c9 3e3d 668e ebbc 3531 2fbd 8741 68bb
000001f0: 6edc afbb a04c be3b 9b39 713d bc01 163d
00000200: cdcd ae3d 1b7a 08bd 0db7 cfbc 4038 5a3c
00000210: e36e a3bd ddd6 8c3d 3d03 13bd a3d1 c83c
00000220: c162 afbc 39c5 dcbc 9cc6 e63d 6daf 37bb
00000230: 6220 ba3e c591 073e 7176 3abf d1b8 52bf
00000240: f089 113e eab1 a4bc eb96 113d 968d bebc
00000250: 4aaa 41bd 7ce2 11bd cdc5 b6bd 6173 d13c
00000260: 95bd 913d 91aa b43d afc9 2c3d 555c 73bd
00000270: f5ee 1dbd c773 d3bd 6e25 e4bd b791 c9bd
00000280: df28 c63c 29b3 24bd 3794 1bbd 7ef4 11bc
00000290: cf98 bebc 6360 833c a78a 343d 70ad f2bc
000002a0: 16c7 c03c 71da 893d 613d 47bd 062b c53c
000002b0: df08 0f3d f8c9 ab3d d253 113d 4b1b 00be
000002c0: 8847 813e b48d f8bc 5df9 863f 9427 cb3f
000002d0: 3f18 b9bc 2a50 b73d bb70 b53d ffe8 813d
000002e0: c98d 30bc 95aa 6cbd a5be 7fbd c404 223d
000002f0: 8d77 ea3d 59fd 423b 119f d6bd 9165 8b3d
00000300: 7feb b2bd daef c83c 8f20 033d 5601 0bbc
00000310: 67c7 6f3d 92fd f33b 350f c9bd 2226 25be
00000320: 7573 f8bd 6ab1 9d3d cccb 973d c2cc 5dbd
00000330: f2af 443d 91ed debc c6f9 843d 8571 043e
00000340: 36aa 123d 93ab 153e cd8c 41be 5217 bdbd
00000350: 85c5 57be ce7b d0bc 7004 d73f 7eba c33f
00000360: 91bf 55bb fcdd be3c c9ba 14bd c729 133d
00000370: 4453 8d3d 0659 5dbc acb2 083d 1d31 cbbc
00000380: 906c d9bb b49e 0a3e 4b8d a9bd 6a38 dcbd
00000390: 03cb cabb ab6b 8fbc 9a0b 67bd 6fe2 90bd
000003a0: 0b31 6abc d31f b7bd a411 8fbd 9f7e a7bd
000003b0: f7a2 7f3c c54f 003d 8767 ca3d fae5 f53d
000003c0: 4ee5 3dbd d573 553d 61c0 8fbd 6920 a3bd
000003d0: da45 a6bc 404f 57bc afd2 85bd 92b5 103d
000003e0: db1a 763e 6da4 353d c696 7c3f 517b a33f
000003f0: 67a8 793d 7f94 b4bd c76f debd ad3f afbd

linear1.bias f4 [16]
0.05998384 -0.93433654 1.8560394 -0.955837 1.6448909 1.3648019 0.9833998 -0.9654718
-1.2023209 0.16952719 2.2424657 -0.8632859 0.84848565 0.76882046 0.29818976 0.592327
00000000: 9db1 753d ae30 6fbf b392 ed3f bcb1 74bf
00000010: c98b d23f d4b1 ae3f 17c0 7b3f 2929 77bf
00000020: a7e5 99bf 8998 2d3e 8f84 0f40 4e00 5dbf
00000030: 5b36 593f 6bd1 443f 54ac 983e bea2 173f

linear2.weight f4 [32, 16]
0.3204891 -0.61543447 0.41030288 0.8616007 -0.0015298727 -0.59315336 -0.26321578 -0.1370348
0.41787404 0.2894085 -0.06988368 -0.22999865 0.07469959 0.23187083 -0.47706687 0.49913892
0.00317903 -0.26645958 -2.2079582 -0.1865039 0.43927312 0.47425663 0.43200162 -0.3767526
0.280405 0.22665241 -0.15050632 -0.3018201 0.71664685 -0.219251 0.682135 -0.521568
0.2547269 0.10763898 -0.15455514 0.35985085 0.13974313 -0.20290552 -0.058624927 -0.16182657
0.41503957 0.2646542 -0.011812011 -0.0038204312 0.1805645 0.2325048 0.22152968 0.10676878
-2.0258887 0.42997694 -0.26739085 -0.18641734 -0.9985606 -0.37636238 -0.63061476 0.6878348
0.75437176 -0.30080292 -0.75531733 0.6156083 0.44350368 -1.3521686 0.43551806 -1.5971199
0.20009127 0.16274907 -0.17254491 0.10354501 0.057465844 0.21761967 0.088760935 -0.19446968
0.35431063 0.25088307 0.035864115 -0.27182832 -0.043074243 0.122900054 0.16837338 0.29102436
0.26705137 0.038873207 -0.07629641 -0.05354905 -0.059209246 0.0059477785 0.20196511 -0.08384962
0.2562324 0.086944476 0.057036143 -0.08538414 0.14374208 -0.052880004 0.28723073 -0.021233773
0.16429181 -0.040021207 -0.25062272 0.23473978 0.26964244 -0.25046867 0.059454698 -0.17134833
0.33589748 0.34128335 -0.19650482 -0.010800748 0.59799606 0.31925467 0.1821982 0.12426861
0.08236863 -0.15057197 -0.1309982 0.3138121 0.097631015 -0.22159097 -0.10783314 -0.17299393
0.3851028 0.06053471 0.080316395 0.0638385 0.45980188 0.06730636 0.3049641 0.2692418
-2.0876417 0.22260611 0.042092487 -0.37113592 -0.5342638 0.15225585 -0.5713468 0.6251257
0.40218723 -0.078496575 -0.53093684 0.57805973 0.53113276 -1.8299031 0.20778798 -1.126197
-0.0890135 -0.35387477 0.03769338 0.1878493 -0.018591303 0.021595187 -0.051614176 -0.09835661
-0.053158153 -0.10522196 -0.018929828 0.08740994 0.07325381 0.18921821 0.29863623 0.02441261
0.23275638 -0.58123136 0.29513535 0.46267092 -0.08615102 -0.6007901 -0.19744432 -0.29626587
0.6472042 0.21589807 0.11303831 -0.5905373 -0.11243009 0.28582978 -0.23761468 0.09483161
-0.09292274 -0.14187899 0.12996122 0.0017844228 0.23916802 0.5747999 0.5712554 -0.010464261
-0.48107642 0.32684624 0.41719496 0.23107979 -0.050627105 -0.11733702 0.36163732 0.19756952
0.24998371 0.05291662 -1.2674141 -0.18860124 0.30653706 0.36167 0.3584095 -0.29064786
0.0883988 -0.04626769 -0.14108717 -0.15538613 0.38892832 -0.121938094 0.44075045 -0.09189148
0.021826096 -0.40281543 -2.6182158 -0.062363364 -0.027334131 0.6632736 0.5650564 -0.09620343
0.18169235 -0.0019700958 -0.00022173472 -0.4328698 0.42493606 -0.07753116 0.72460467 -0.35439065
0.33820367 -0.27248266 -0.20477098 0.5474752 0.22398688 -0.051396765 0.0945519 0.07257362
0.30772611 0.2504912 -0.11315283 0.09164653 0.50056523 0.05227529 0.15847902 0.06967697
-1.7312068 0.22663236 -0.13240625 -0.11156441 -0.6720076 -0.28614068 -0.35398594 0.31589723
0.5794909 -0.16950645 -0.6137312 0.32976973 0.32349998 -1.9208943 0.5057738 -1.3516738
00000000: 2617 a43e 1d8d 1dbf 3813 d23e dd91 5c3f
00000010: 0286 c8ba e6d8 17bf 38c4 86be da52 0cbe
00000020: 96f3 d53e 5a2d 943e 2d1f 8fbd c484 6bbe
00000030: 19fc 983d 8c6f 6d3e 1c42 f4be 238f ff3e
00000040: 4657 503b 646d 88be 304f 0dc0 e1fa 3ebe
00000050: 68e8 e03e c4d1 f23e 512f dd3e b7e5 c0be
00000060: 3f91 8f3e 9217 683e 541e 1abe 2a88 9abe
00000070: 2b76 373f 5683 60be 66a0 2e3f 7b85 05bf
00000080: 906b 823e d371 dc3d b443 1ebe 5f3e b83e
00000090: d318 0f3e 77c6 4fbe b120 70bd ddb5 25be
000000a0: 1180 d43e c180 873e 2a87 41bc 3360 7abb
000000b0: e6e5 383e bd15 6e3e add8 623e 97a9 da3d
000000c0: 29a8 01c0 f025 dc3e 74e7 88be 30e4 3ebe
000000d0: aba1 7fbf 92b2 c0be f86f 21bf f115 303f
000000e0: 821e 413f d702 9abe 7a5c 41bf 8198 1d3f
000000f0: ea12 e33e dc13 adbf 39fc de3e 6d6e ccbf
00000100: bae4 4c3e b1a7 263e 9daf 30be 680f d43d
00000110: 4e61 6b3d b1d7 5e3e 4bc8 b53d 0f23 47be
00000120: 3468 b53e bf73 803e 40e6 123d 152d 8bbe
00000130: 9e6e 30bd 06b3 fb3d 126a 2c3e 2501 953e
00000140: f5ba 883e 8339 1f3d 4b41 9cbd 4056 5bbd
00000150: 6585 72bd 95e5 c23b f1cf 4e3e 59b9 abbd
00000160: e530 833e f20f b23d bb9e 693d e1dd aebd
00000170: 2031 133e b498 58bd e80f 933e 73f2 adbc
00000180: 1d3c 283e 47ed 23bd 9f51 80be a05f 703e
00000190: 930e 8a3e 6e3d 80be c586 733d f075 2fbe
000001a0: c1fa ab3e b1bc ae3e 8f38 49be 9ff5 30bc
000001b0: 4516 193f 5975 a33e 2a92 3a3e 8a80 fe3d
000001c0: e2b0 a83d 8a2f 1abe 6424 06be fbab a03e
000001d0: c5f2 c73d bee8 62be 9fd7 dcbd 5225 31be
000001e0: 322c c53e 3ef3 773d ec7c a43d c2bd 823d
000001f0: 276b eb3e ebd7 893d 4124 9c3e 10da 893e
00000200: ec9b 05c0 dbf2 633e 2c69 2c3d 8705 bebe
00000210: 83c5 08bf f5e8 1b3e c943 12bf 3d08 203f
00000220: 7ceb cd3e d0c2 a0bd 7aeb 07bf b9fb 133f
00000230: 51f8 073f 443a eabf 5fc6 543e 3927 90bf
00000240: b64c b6bd 132f b5be 6064 1a3d 915b 403e
00000250: ca4c 98bc 64e8 b03c 6369 53bd 316f c9bd
00000260: 5dbc 59bd 9c7e d7bd ba12 9bbc fc03 b33d
00000270: 1806 963d 6bc2 413e d9e6 983e f4fc c73c
00000280: b057 6e3e 94cb 14bf fb1b 973e 34e3 ec3e
00000290: f26f b0bd 61cd 19bf d82e 4abe 29b0 97be
000002a0: 2daf 253f 6214 5d3e a180 e73d 742d 17bf
000002b0: bf41 e6bd 4858 923e 4351 73be 1337 c23d
000002c0: 474e bebd ba48 11be 8e14 053e 4be3 e93a
000002d0: 76e8 743e 1626 133f cb3d 123f 4b72 2bbc
000002e0: a64f f6be 6458 a73e 949a d53e 2ea0 6c3e
000002f0: 5e5e 4fbd 644e f0bd 8728 b93e aa4f 4a3e
00000300: bbfb 7f3e 19bf 583d a03a a2bf af20 41be
00000310: 6df2 9c3e cf2c b93e 7381 b73e cccf 94be
00000320: 6e0a b53d 3083 3dbd 2879 10be 8b1d 1fbe
00000330: 9d21 c73e aeba f9bd 0baa e13e 9a31 bcbd
00000340: a4cc b23c d33d cebe d990 27c0 ba70 7fbd
00000350: d4eb dfbc 4ccc 293f 89a7 103f 4e06 c5bd
00000360: 8f0d 3a3e b91c 01bb 7681 68b9 1ca1 ddbe
00000370: 3891 d93e a8c8 9ebd b17f 393f b172 b5be
00000380: 0829 ad3e d982 8bbe 7caf 51be 5627 0c3f
00000390: d15c 653e 6a85 52bd 6da4 c13d 7aa1 943d
000003a0: 478e 9d3e 6240 803e acbc e7bd 2db1 bb3d
000003b0: 0b25 003f 9d1e 563d 5348 223e cdb2 8e3d
000003c0: 2f98 ddbf 5012 683e 8195 07be e27b e4bd
000003d0: b108 2cbf 0881 92be a53d b5be 48bd a13e
000003e0: 8459 143f 1993 2dbe 7d1d 1dbf 94d7 a83e
000003f0: caa1 a53e dddf f5bf 647a 013f a603 adbf

linear2.bias f4 [32]
-0.5003296 0.8027288 -0.0014320298 -0.36884752 -0.510769 -0.13140269 -0.08020232 0.13998546
-0.35760936 -0.058048975 -0.28301477 0.50026333 0.06166698 0.28050655 -0.018073443 -0.46470565
-0.011801627 -0.12562445 0.41051695 -0.6053725 -0.463067 -0.6849868 0.51034343 -0.37085077
0.07975736 0.02583893 -0.116203 0.85818994 0.7670011 -0.17364693 0.21635535 0.49753153
00000000: 9a15 00bf a27f 4d3f f2b2 bbba 95d9 bcbe
00000010: c2c1 02bf 6d8e 06be 1d41 a4bd 5958 0f3e
00000020: 9318 b7be c3c4 6dbd 50e7 90be 4211 003f
00000030: 8496 7c3d 8e9e 8f3e c20e 94bc e6ed edbe
00000040: 9d5b 41bc b2a3 00be 472f d23e b1f9 1abf
00000050: 1e17 edbe 4c5b 2fbf dea5 023f 27e0 bdbe
00000060: d457 a33d 2aac d33c d7fb edbd 56b2 5b3f
00000070: 2f5a 443f 80d0 31be 428c 5d3e 74bc fe3e

linear3.weight f4 [2, 32]
0.85573584 1.2469605 0.5656527 -1.1177573 0.19011621 0.16481778 0.46719894 0.47143057
-1.0630748 0.36797833 0.57545704 -0.69138706 0.96860594 1.5000094 0.3126218 -0.9430288
0.36697814 0.5144856 1.3501657 -1.263318 -1.067987 -0.8541994 -0.40927175 0.23549947
-0.5490473 0.52286446 0.27969068 -0.6366297 -0.6515534 0.3256067 1.3374971 -0.6978298
-0.034642596 -0.116666056 0.16286716 -0.0004911706 0.21448688 -0.09181408 -0.1297864 -0.16382623
0.038999986 -0.12089245 0.029504653 0.015704812 0.103290886 0.01641582 0.070666544 -0.18661651
-0.2328583 0.20756747 -0.0637898 0.018035017 -0.059011344 0.217078 -0.13157758 -0.15147157
0.12802356 0.0075639635 0.22832498 -0.104094625 -0.018410826 -0.10483084 0.11590286 0.044833645
00000000: 8111 5b3f 679c 9f3f 9ece 103f ac12 8fbf
00000010: d3ad 423e fec5 283e b334 ef3e 595f f13e
00000020: d612 88bf a867 bc3e 2751 133f befe 30bf
00000030: 8ff6 773f 4f00 c03f f70f a03e 566a 71bf
00000040: 8fe4 bb3e 54b5 033f 3bd2 ac3f 67b4 a1bf
00000050: ccb3 88bf d0ac 5abf 118c d1be c626 713e
00000060: 5d8e 0cbf 72da 053f 9e33 8f3e 2afa 22bf
00000070: 34cc 26bf ecb5 a63e 1b33 ab3f f9a4 32bf
00000080: 65e5 0dbd 9dee eebd a6c6 263e e7c1 00ba
00000090: 73a2 5b3e 0509 bcbd bae6 04be 10c2 27be
000000a0: 73be 1f3d 7696 f7bd beb3 f13c 61a7 803c
000000b0: 2c8a d33d 787a 863c 9fb9 903d 6618 3fbe
000000c0: 6872 6ebe 918c 543e 3aa4 82bd 2cbe 933c
000000d0: e1b5 71bd b249 5e3e 46bc 06be 5d1b 1bbe
000000e0: 9c18 033e 20db f73b 06ce 693e 902f d5bd
000000f0: 4dd2 96bc 8db1 d6bd 7b5e ed3d 7ca3 373d

linear3.bias f4 [2]
-0.16551198 0.31808943
00000000: f97b 29be 9edc a23e
