model/generator_parameters_full.pth (torch, 7740 bytes, 6 tensors)

linear1.weight f4 [16, 36]
0	0x3c85f838	0.016353711
1	0x3c9d035c	0.019166641
2	0xbd0524a6	-0.032505654
3	0xbcd9a788	-0.026569143
4	0x3d3496cc	0.044089124
5	0x3b0c223a	0.0021382705
6	0xbd1de20b	-0.03854565
7	0xbd61cea6	-0.055128716
8	0x3d3d61bd	0.04623579
9	0x3cadfacd	0.021237755
10	0x3d4c7369	0.04991475
11	0xbc6552ac	-0.013996761
12	0x3d19c98f	0.037545737
13	0xbd1e57fb	-0.038658123
14	0x3cb1a43d	0.02168476
15	0x3cef8423	0.029237812
16	0xbc99f875	-0.018795231
17	0x3d2eecb3	0.042706203
18	0xbd1a6162	-0.037690528
19	0xbc7bd46e	-0.015370471
20	0x3c281682	0.0102592725
21	0xbcc4873d	-0.023990268
22	0xbc8f4e46	-0.017493378
23	0xbcb7879d	-0.022403533
24	0x3d127d39	0.035763953
25	0xbca08dc8	-0.019598857
26	0x3bda4a6a	0.006661703
27	0x3d4591c7	0.048234727
28	0x3d19bcc4	0.037533537
29	0xbc8421e4	-0.016129442
30	0x3c97c845	0.018528113
31	0x3ce31abe	0.027722713
32	0x3eb9f3a1	0.36318687
33	0xbde23802	-0.11045839
34	0x3dcde1a8	0.10052806
35	0xbe725bea	-0.23667875
36	0x3e6d08dd	0.23147912
37	0x3eedcb20	0.46444035
38	0xbecc63c4	-0.39919865
39	0xbed517b7	-0.41619655
40	0x3ee005dc	0.4375447
41	0x3e94cbea	0.29061824
42	0xbea5e163	-0.3239852
43	0xbec48a4c	-0.38386762
44	0x3eef58c9	0.46747425
45	0x3ea3c9a4	0.31989777
46	0x3ef54e33	0.47911224
47	0xbd1eae13	-0.03874023
48	0x3ec9471a	0.3931206
49	0xbeb4625f	-0.352313
50	0x3e9d8d5c	0.3077191
51	0x3ec08689	0.37602642
52	0xbea3582c	-0.31903207
53	0x3ea82edd	0.32848254
54	0xbec55f63	-0.38549337
55	0xbecf9e3a	-0.40550405
56	0x3e4bfd8c	0.19920939
57	0xbeb50916	-0.35358495
58	0xbe706d1f	-0.23479126
59	0xbeebacbb	-0.4603022
60	0x3e576ae2	0.21036866
61	0xbe4310f6	-0.19049439
62	0x3ea88dc7	0.32920668
63	0x3e846c49	0.25863865
64	0x3eecb58a	0.46232253
65	0xbec28561	-0.37992385
66	0x3e3aeca7	0.18254338
67	0x3e877971	0.2645984
68	0x3d9b3704	0.07578853
69	0x3ee3c0e6	0.44483107
70	0x3dc3c8df	0.095597975
71	0x3e2b871c	0.16750759
72	0x3d8f09e8	0.06984311
73	0xbd0761e0	-0.033052325
74	0xbb8f2fe8	-0.0043697245
75	0xbc1c034d	-0.009522271
76	0xbb084307	-0.0020791905
77	0x3d821cb3	0.0635313
78	0xbe35da16	-0.17758974
79	0xbdaaa128	-0.08331519
80	0x3e40fa2d	0.18845434
81	0x3d0b4af1	0.034007017
82	0xbca314b0	-0.019907326
83	0xbd5ff7ba	-0.05467961
84	0x3e42dfb0	0.19030643
85	0x3d6bdd2b	0.05758397
86	0x3d668ea3	0.056288373
87	0x3ca7100f	0.0203934
88	0xbcf0788d	-0.029354358
89	0x3e18e424	0.14930779
90	0xbdbf099b	-0.09328004
91	0x3cd3ca5e	0.025853332
92	0x3e1fc158	0.15601099
93	0xbdd75744	-0.105146915
94	0x3d08f570	0.033437192
95	0x3cf9f2b8	0.030511245
96	0xbd2b713e	-0.041856043
97	0xbd5ecb28	-0.054392964
98	0x3d5a4f12	0.053298064
99	0x3e0bc8f9	0.13650884
100	0xbd2755c2	-0.04085327
101	0xbd914059	-0.070923515
102	0x3dd62d45	0.10457853
103	0x3b0328ed	0.0020013407
104	0x3e058c98	0.13041914
105	0x3d13944b	0.036030095
106	0xbf39c852	-0.7257129
107	0x3e520847	0.2051097
108	0xbd3c35b2	-0.045949645
109	0xbe09791b	-0.13425104
110	0x3db5de19	0.088802524
111	0x3d910994	0.07081905
112	0xbd96aa19	-0.07356662
113	0xbb2bb245	-0.0026198786
114	0x3ab102fb	0.0013504917
115	0x3d33af41	0.043868307
116	0xbe12657a	-0.14296523
117	0xbbd1b7bd	-0.006400077
118	0xbe004999	-0.12528075
119	0xbcf21f98	-0.02955608
120	0x3a3a7ed3	0.0007114235
121	0x3e0c3771	0.13693024
122	0x3d664ebf	0.056227442
123	0xbdca9804	-0.09892276
124	0x3ce4e430	0.02794084
125	0xbe056c8d	-0.1302969
126	0x3c666e78	0.014064424
127	0x3e0c046a	0.13673559
128	0x3d2b1e43	0.041776907
129	0x3dc49b65	0.09599952
130	0xbbd00cbe	-0.0063491752
131	0x3dea3609	0.11436088
132	0xbcfb2a1c	-0.030659728
133	0x3b8d38a7	0.004309732
134	0xbe13fcc4	-0.14451891
135	0xbd377bc4	-0.044795766
136	0xbe2e1e49	-0.1700374
137	0x3cd24179	0.025665985
138	0x3d249be9	0.04018775
139	0xbdc04d43	-0.093897365
140	0x3bd81bc3	0.0065951063
141	0x3e96a66e	0.2942385
142	0x3fa9fd4f	1.3280429
143	0x3ea538ec	0.3226999
144	0xbe8cbdf8	-0.27488685
145	0xbee85fee	-0.4538569
146	0x3ecc9343	0.39956102
147	0x3eec3b42	0.4613896
148	0xbee063ed	-0.43826237
149	0xbee2dc4c	-0.44308698
150	0x3f02941c	0.51007247
151	0x3ee2dce4	0.4430915
152	0xbf0738d8	-0.5282111
153	0xbed465fd	-0.4148406
154	0xbeeb0db0	-0.4590888
155	0x3d80f976	0.06297581
156	0xbf1234f0	-0.57112026
157	0x3e959e98	0.2922256
158	0xbedc1d6d	-0.429912
159	0xbebf37f9	-0.3734739
160	0x3eb993a3	0.3624545
161	0xbeeba91c	-0.46027458
162	0x3f03e549	0.51521736
163	0x3eb042af	0.34425876
164	0xbec9c882	-0.39410788
165	0x3ed6a7f4	0.41925013
166	0x3e81c1da	0.2534321
167	0x3ee1cbad	0.44100705
168	0xbe1fa415	-0.15589936
169	0x3e5a3ca0	0.21312189
170	0xbeb7a518	-0.35868144
171	0xbea8ed40	-0.32993507
172	0xbed5e387	-0.41775152
173	0x3efdcc52	0.49569947
174	0xbe956a79	-0.29182795
175	0xbe8bb8a1	-0.27289298
176	0x3ec9874f	0.39361045
177	0xbec95765	-0.3932449
178	0x3f14b553	0.5808918
179	0x3e0fdd7b	0.14049332
180	0x3de06c95	0.109582104
181	0x3e4ee5ab	0.20204799
182	0xbdf9fc5d	-0.122063376
183	0xbe06d224	-0.131661
184	0x3e09d16a	0.13458791
185	0x3dbcef1a	0.092252925
186	0xbe075808	-0.13217175
187	0xbe3f72f2	-0.18696192
188	0x3e597808	0.21237195
189	0x3dc6f234	0.09714165
190	0x3e3c1d53	0.18370561
191	0xbc9be4f7	-0.019030077
192	0x3e2789fe	0.16361234
193	0xbdbfe702	-0.09370233
194	0x3dfae9d3	0.1225163
195	0x3dce44f8	0.100717485
196	0xbd50e0d7	-0.050995674
197	0x3e5da254	0.21643955
198	0xbe0501cf	-0.12988971
199	0xbe1a5d24	-0.15074593
200	0x3e022085	0.12707718
201	0xbe13e5cf	-0.14443134
202	0xbd3a92c7	-0.045550134
203	0xbe269a87	-0.16269885
204	0x3d28a289	0.04117063
205	0xbdb6fafa	-0.08934589
206	0x3e218064	0.15771633
207	0x3e0669ea	0.1312634
208	0x3e6c7877	0.23092829
209	0xbdc72746	-0.09724288
210	0x3dafd2e3	0.08585145
211	0x3d17e49a	0.037083246
212	0x3ec55589	0.3854182
213	0xbeddce74	-0.43321574
214	0x3faa8968	1.3323183
215	0x3e72da3f	0.23716067
216	0xbdf2b176	-0.11850254
217	0xbe13b4e4	-0.14424473
218	0x3db88751	0.090101846
219	0x3d9e3bb2	0.0772623
220	0xbe08235f	-0.13294743
221	0xbd8357f7	-0.06413262
222	0x3d78e0e9	0.060761366
223	0x3df4bc95	0.11950032
224	0xbe106503	-0.14101033
225	0xbdd55893	-0.10417285
226	0xbdc78ec5	-0.09744028
227	0x3aba25f3	0.0014201984
228	0xbdb06800	-0.086135864
229	0x3d063289	0.032763038
230	0xbe2ac1d7	-0.16675507
231	0xbdadeccd	-0.08492432
232	0x3db99449	0.09061486
233	0xbdf2b354	-0.118506104
234	0x3ddf30d8	0.10897988
235	0x3e1587eb	0.1460263
236	0xbdbe30d0	-0.09286654
237	0x3dd80c63	0.105492376
238	0x3c4ee832	0.012628602
239	0x3e0198f9	0.1265601
240	0xbce34486	-0.027742635
241	0x3d4d8d30	0.050183475
242	0xbdc1bc81	-0.094597824
243	0xbd502853	-0.050819706
244	0xbe3463a9	-0.17616142
245	0x3d97ab92	0.07405771
246	0xbd54634f	-0.05185252
247	0xbbefa67a	-0.0073135467
248	0x3e764c14	0.24052459
249	0x3e8ed000	0.27893066
250	0x3f576abf	0.84147257
251	0x3e836436	0.25662392
252	0xbeda1667	-0.42595217
253	0xbf2e645c	-0.68121886
254	0x3f1031e2	0.56326115
255	0x3f25ff91	0.6484309

linear1.bias f4 [16]
0	0xbe114f8b	-0.141905
1	0x3ef46ded	0.47740117
2	0x3f02b64a	0.510594
3	0xbec6ad25	-0.38803974
4	0xbee339f0	-0.4438014
5	0xbe2044d7	-0.1565126
6	0x3edececb	0.43517146
7	0xbf8a383a	-1.0798409
8	0x3f844ec6	1.033654
9	0x3f283197	0.6570067
10	0x3d50b7a4	0.050956383
11	0xbca07d16	-0.019590896
12	0x3f078752	0.5294086
13	0xbe8c57ca	-0.27410728
14	0x3e90cb7f	0.28280255
15	0x3f4a9cfc	0.7914579

linear2.weight f4 [32, 16]
0	0x3d2483c4	0.040164724
1	0x3e807bf8	0.2509458
2	0x3e95d176	0.2926137
3	0xbe2b6cf7	-0.16740786
4	0x3e390ac7	0.18070517
5	0xbe1bd509	-0.15217985
6	0xbd5550f3	-0.052079152
7	0xbdb42e44	-0.08797887
8	0xbdbb4e4e	-0.09145795
9	0x3e836be9	0.25668266
10	0x3da92cdc	0.08260509
11	0x3e1cccdb	0.15312521
12	0xbe2b612e	-0.1673629
13	0xbd9e34d5	-0.07724921
14	0xbed15b39	-0.4088991
15	0x3f3454c5	0.7044185
16	0x3dc4e304	0.09613612
17	0xbd441128	-0.047867924
18	0x3e81044c	0.2519859
19	0xbe2e75a1	-0.1703706
20	0xbe2797fd	-0.16366573
21	0x3dc7643c	0.09735915
22	0x3e60a945	0.21939571
23	0x3d9eff99	0.07763595
24	0x3e2deb8e	0.16984388
25	0x3ec25532	0.37955624
26	0x3e8cb805	0.27484146
27	0x3e8f238a	0.27956802
28	0x3ed7ca03	0.4214631
29	0xbd0b3d33	-0.03399391
30	0xbd458cdf	-0.04823005
31	0x3f05e33d	0.52299863
32	0x3e808b6a	0.25106364
33	0xbd67e7c4	-0.056617513
34	0x3dd454b2	0.10367717
35	0x3d088f15	0.03333958
36	0x3dfd1705	0.12357906
37	0xbb9f5f3e	-0.0048636487
38	0x3e8ef574	0.2792164
39	0xbdae34c7	-0.0850616
40	0x3e290353	0.16505174
41	0x3e82c52e	0.2554106
42	0xbe2f2f7b	-0.17107956
43	0x3dbcf60d	0.09226618
44	0xbdffb679	-0.12485976
45	0x3e2a4777	0.16628824
46	0x3eb4401e	0.35205168
47	0x3dabc9dc	0.08388111
48	0xbea49a89	-0.3214915
49	0x3c54a646	0.012979096
50	0x3e5434bb	0.2072324
51	0x3eacedd8	0.3377521
52	0xbd617c80	-0.055050373
53	0x3e34d2f9	0.17658605
54	0x3e2b5b9a	0.16734162
55	0x3dfc1bd6	0.12309997
56	0xbca1573e	-0.01969492
57	0x3ea5c81f	0.32379243
58	0x3dd402c0	0.10352087
59	0x3debadc8	0.115077555
60	0x3e9b2718	0.30303264
61	0x3eaea764	0.34112084
62	0xbd49e53d	-0.049290884
63	0xbe481ac8	-0.19541466
64	0x3db5058a	0.08838947
65	0xbcee3b75	-0.029081086
66	0xbea9cc64	-0.3316375
67	0x3e986f88	0.29772592
68	0x3ed645a6	0.41850013
69	0x3eb6a703	0.35674295
70	0x3e4db501	0.20088579
71	0x3e002b3b	0.12516491
72	0xbe858d42	-0.26084334
73	0xbe83ee57	-0.25767776
74	0x3e4f1aee	0.20225117
75	0x3ee3d67b	0.44499573
76	0xbe61e432	-0.22059706
77	0x3e95aa4d	0.29231492
78	0x3e0af6e0	0.13570738
79	0xbefce553	-0.4939371
80	0x3ed57ef2	0.41698414
81	0xbeb9be23	-0.36277875
82	0x3d54f95f	0.05199563
83	0xbe7ccd26	-0.24687633
84	0x3e490a8f	0.19632934
85	0x3c057a7e	0.00814688
86	0xbd19e0c9	-0.037567887
87	0x3e3ad882	0.18246654
88	0xbcafc50f	-0.02145627
89	0x3e883dbc	0.266096
90	0xbd983f5a	-0.07433958
91	0x3e469b95	0.19395287
92	0x3ddf9a72	0.1091813
93	0xbec65308	-0.38735223
94	0x3eb5a258	0.3547542
95	0x3f1bf8aa	0.60926306
96	0x3ec2948d	0.3800396
97	0x3e063475	0.13105948
98	0xbdaadfcf	-0.08343469
99	0xbd1c9f6e	-0.03823798
100	0xbc9904bb	-0.018679013
101	0xbdd80227	-0.105472855
102	0x3ea9222c	0.33033884
103	0x3dc8023e	0.09766053
104	0x3e515435	0.20442279
105	0x3de9abe5	0.114097394
106	0xbd1a2e1a	-0.037641622
107	0x3e531e59	0.20617045
108	0xbf0d2c6c	-0.5514591
109	0x3e69bf86	0.22826967
110	0x3f067b85	0.52532226
111	0x3d2e4b40	0.042552233
112	0xbe8b3cab	-0.27194723
113	0x3e45def3	0.1932333
114	0x3e70c206	0.23511514
115	0xbda52000	-0.08062744
116	0x3e509806	0.20370492
117	0x3e0d3ab3	0.13791923
118	0x3eb1a199	0.34693602
119	0xbea388f5	-0.31940427
120	0xbe1509c6	-0.1455451
121	0x3ecff774	0.4061848
122	0x3e6080f8	0.21924198
123	0xbde845fb	-0.11341473
124	0xbda4d2cd	-0.080480196
125	0xbc1aa258	-0.00943812
126	0xbfa5b0b5	-1.2944552
127	0x3ece051a	0.40238267
128	0xbeedcdd9	-0.46446112
129	0xbe0444be	-0.12916848
130	0x3c365e4b	0.01113088
131	0x3e87ef3c	0.2654971
132	0x3df3c4a9	0.11902744
133	0x3dfde4a8	0.12397128
134	0x3ddfb8c4	0.10923913
135	0x3e348fc5	0.17632969
136	0x3ebb4063	0.3657256
137	0x3ce3fb1e	0.027829703
138	0x3e2a091a	0.16605034
139	0x3e4f2fcc	0.20233077
140	0x3eb3a221	0.35084632
141	0x3e154683	0.1457768
142	0xbdf51e49	-0.11968667
143	0xbe29a85e	-0.16568133
144	0xbe5392a3	-0.20661406
145	0x3eab04d6	0.33402127
146	0xbccd830d	-0.025086904
147	0x3e23c249	0.15992083
148	0xbab64370	-0.0013905596
149	0x3dff7bc2	0.12474777
150	0x3ce36aaa	0.027760822
151	0x3e04c9bd	0.12967582
152	0xbc14e597	-0.009087942
153	0x3d9520c5	0.07281641
154	0xbcbc9dfb	-0.02302455
155	0xbe4c038b	-0.19923227
156	0xbd570bed	-0.052501608
157	0x3eedf490	0.4647565
158	0xbecc0fc5	-0.3985578
159	0xbd99d0f5	-0.075105585
160	0x3ce30016	0.027710002
161	0x3e1b9570	0.15193725
162	0x3e092b02	0.13395312
163	0xbd705f77	-0.058684792
164	0xbe2bfabb	-0.16794865
165	0x3daf730b	0.085668646
166	0x3e5dcc2f	0.21659921
167	0x3ce67f18	0.028136775
168	0x3eb38209	0.35060146
169	0x3e52ba15	0.20578797
170	0x3e018a59	0.12650432
171	0x3e4d5391	0.2005141
172	0x3e4d2a16	0.20035586
173	0xbdc45a1d	-0.095875
174	0xbef94730	-0.48687124
175	0x3eb67275	0.356342
176	0xbe03d358	-0.1287359
177	0xbd8bc89f	-0.06825375
178	0x3e2b9aae	0.16758224
179	0x3dbd800b	0.09252938
180	0xbdc9323f	-0.09824037
181	0xbb3b78a5	-0.0028605845
182	0xbdaf49f9	-0.08559031
183	0xbdd77fdf	-0.10522436
184	0x3e8900fa	0.26758558
185	0x3e6a30d4	0.22870189
186	0x3d55663b	0.052099448
187	0x3d0ea536	0.034825526
188	0x3d7cb6b4	0.061697677
189	0xbe8efc89	-0.27927044
190	0x3dbf67b7	0.09345954
191	0x3ede2fa0	0.4339571
192	0x3fa3a9c8	1.2786188
193	0xbf01dff5	-0.50732356
194	0xbeba9c26	-0.36447257
195	0xbf544d4f	-0.82930464
196	0xbe07d64f	-0.13265346
197	0x3e54f502	0.20796588
198	0xbee53533	-0.4476715
199	0x3d425958	0.047448486
200	0xbf2efe36	-0.68356645
201	0xbf99a9f1	-1.2004987
202	0x3e8b3850	0.271914
203	0xbcf32c1e	-0.029684123
204	0x3e926a47	0.28596708
205	0xbfd2a5d5	-1.6456858
206	0xbed3b84d	-0.41351548
207	0xbf333042	-0.6999551
208	0x3d04f7b0	0.032462776
209	0x3eab40e2	0.3344794
210	0x3e8806b9	0.2656763
211	0xbd77c592	-0.060491152
212	0x3cc101cd	0.023560429
213	0xbcb6938a	-0.022287149
214	0xbc9a1f6b	-0.01881381
215	0xbe5c595b	-0.21518461
216	0x3e5b7445	0.21431072
217	0x3dd8356d	0.10557065
218	0x3ec0353e	0.3754062
219	0x3e3c0f0b	0.18365113
220	0x3dcbd58a	0.09952839
221	0xbdbfd899	-0.093674846
222	0xbd61966a	-0.055075087
223	0x3ee83215	0.4535071
224	0x3e2ca1d0	0.16858602
225	0x3d1d6cd2	0.038433857
226	0x3e63a1c4	0.22229677
227	0xbdbb4209	-0.091434546
228	0xbdd5a8cc	-0.10432586
229	0x3d3a8ee6	0.045546435
230	0x3dafc8ed	0.085832454
231	0x3e8a510c	0.2701496
232	0xbe0f67d1	-0.14004447
233	0x3e999825	0.2999889
234	0x3e3f6339	0.18690194
235	0x3e93f19e	0.28895277
236	0xbde76276	-0.11298077
237	0xbdd925fb	-0.10602947
238	0x3e33d406	0.1756135
239	0x3ea1f1c9	0.3162978
240	0x3eff761f	0.49894807
241	0x3d1d1b53	0.038356137
242	0x3eabaa2c	0.33528268
243	0x3e6c30fe	0.23065564
244	0x3e9976b7	0.29973385
245	0x3cca7e09	0.024718301
246	0x3eb0110b	0.34388003
247	0xbe81e292	-0.25368172
248	0x3e1ef32e	0.15522453
249	0x3d784a80	0.060617924
250	0xbf129905	-0.5726474
251	0xbcfb2509	-0.030657308
252	0xbf13473e	-0.5753058
253	0x3eaf579f	0.34246537
254	0x3e9c982e	0.30584854
255	0xbe2b767a	-0.16744414

linear2.bias f4 [32]
0	0x3f0da7a6	0.55333936
1	0x3eeb3470	0.45938444
2	0xbe53d78a	-0.2068769
3	0x3e260f49	0.16216768
4	0xbe27d1ec	-0.16388673
5	0x3f508f8a	0.81469023
6	0xbe4d2749	-0.20034517
7	0x3f72a82b	0.94787854
8	0x3dff2517	0.12458246
9	0x3d0e6a3d	0.034769285
10	0x3f1af7d2	0.60534394
11	0x3ed2fed4	0.41210043
12	0x3f7d91bd	0.99050504
13	0x3f21b345	0.6316417
14	0x3e117e94	0.14208442
15	0xbd90d48d	-0.07071791
16	0xbdc8f4fd	-0.09812353
17	0x3e4c7875	0.19967826
18	0xbe858bb8	-0.2608316
19	0xbf4620a7	-0.77393574
20	0x3e96c824	0.2944957
21	0x397cdb0a	0.00024114191
22	0xbf68c348	-0.90922976
23	0x3e68b7f0	0.22726417
24	0x3e1cec01	0.15324403
25	0xbf5136f4	-0.81724477
26	0xbecfacaa	-0.4056142
27	0x3f2d4959	0.67690045
28	0x3f3921fd	0.72317487
29	0x3decdbf5	0.11565391
30	0xbf1337a9	-0.57506806
31	0x3edd46f8	0.43218207

linear3.weight f4 [2, 32]
0	0x3ecbab31	0.39779046
1	0x3e8b0da6	0.2715885
2	0xbeaae391	-0.33376744
3	0x3cfdb4df	0.030970035
4	0xbecbd0aa	-0.39807636
5	0x3f054716	0.52061594
6	0xbee742e0	-0.4516821
7	0x3ce1d76b	0.02756854
8	0x3e23f9a5	0.160132
9	0x3d1e4b51	0.038646046
10	0x3ecf5591	0.4049497
11	0x3ee0cba6	0.4390537
12	0x3fb9c827	1.4514207
13	0x3eba3943	0.36371812
14	0x3ce1a802	0.027545933
15	0xbf134e0d	-0.5754097
16	0xbf60d01f	-0.8781757
17	0x3ece1e0c	0.402573
18	0xbef45d14	-0.47727263
19	0xbebeedbf	-0.3729076
20	0x3e6c393b	0.23068707
21	0xbee9132f	-0.45522448
22	0xbf09ef12	-0.5388042
23	0x3cb197b8	0.02167879
24	0x3dd48249	0.103764124
25	0xbed33259	-0.4124935
26	0xbf354328	-0.708056
27	0x3f09d7af	0.5384473
28	0x3eaef333	0.3416992
29	0xbec75671	-0.38933137
30	0xbf0b41bc	-0.5439718
31	0x3f11f7a7	0.5701851
32	0x3efdf266	0.49598998
33	0xbd74d740	-0.05977559
34	0x3e4d2ec9	0.20037378
35	0xbe976a5a	-0.29573327
36	0xbe8ef6e4	-0.27922738
37	0x3f0d819f	0.5527591
38	0x3e7da8b3	0.24771385
39	0xbe972012	-0.29516655
40	0xbe959c43	-0.2922078
41	0xbedb804b	-0.42871317
42	0x3d23c99c	0.03998719
43	0x3ee72665	0.4514648
44	0x3fc6d18e	1.5532701
45	0x3d93d528	0.07218391
46	0x3ee417c2	0.44549376
47	0x3bd3e2ca	0.0064662443
48	0x3e4c7e91	0.19970156
49	0x3ce9963a	0.028514016
50	0xbd997542	-0.07493068
51	0xbd7afc11	-0.061275546
52	0x3da257e5	0.07926921
53	0x3e6fa48d	0.23402615
54	0xbe827d23	-0.25486097
55	0x3d9d2032	0.076721564
56	0xbebbf84e	-0.3671288
57	0x3cbec6e0	0.02328819
58	0xbe944624	-0.28959763
59	0x3e101a94	0.14072639
60	0xbd2f8797	-0.042853918
61	0x3eba8ddc	0.36436355
62	0xbdb4f442	-0.08835651
63	0x3edc122b	0.4298261

linear3.bias f4 [2]
0	0x3f30fc92	0.6913539
1	0xbcef0a9f	-0.02917987
